Pro2/part2-mnist/mnist_model_fully_connected.pt (torch, 904527 bytes, 8 tensors)

weight f4 [32, 1, 3, 3]
0	0x3ea2343f	0.31680486
1	0xbd434a52	-0.0476783
2	0xbf256753	-0.64610785
3	0x3e042bf2	0.12907389
4	0x3f34569f	0.70444673
5	0x3e91997a	0.28437406
6	0xbf23a001	-0.6391602
7	0x3eabb5f1	0.33537248
8	0x3ddede5b	0.10882255
9	0xbef59c8c	-0.47970998
10	0x3eb13b8b	0.3461574
11	0x3e10cd5c	0.14140838
12	0xbe8222d1	-0.25417188
13	0x3e1fe6d3	0.15615396
14	0x3e7f2670	0.24917006
15	0xbea602af	-0.32423922
16	0x3e8ece77	0.27891895
17	0x3ea4d9c3	0.3219739
18	0xbe9fb354	-0.31191504
19	0xbdd00466	-0.10157089
20	0xbe0ce019	-0.13757361
21	0xbeb75a0f	-0.35810897
22	0xbe96f788	-0.29485726
23	0xbd1899cb	-0.037256043
24	0xbe6323bf	-0.22181605
25	0x3e70fcf5	0.23533995
26	0x3ea91296	0.33021992
27	0xbe2a03de	-0.16603038
28	0xbe7a51f1	-0.2444532
29	0x3d342273	0.043978166
30	0x3d0870a6	0.033310555
31	0x3e3cec73	0.18449573
32	0x3d0600bd	0.032715548
33	0xbe887e70	-0.26658964
34	0x3cbfea9c	0.0234273
35	0x3ea3b069	0.31970528
36	0x3e5f78cb	0.21823423
37	0x3edba165	0.42896572
38	0xbd011988	-0.03151849
39	0xbcf405e8	-0.029787973
40	0xbd87dab8	-0.06633514
41	0xbeff26bc	-0.4983424
42	0x3eb80bb4	0.3594643
43	0xbd7ed4e4	-0.062214747
44	0xbc1959c7	-0.0093597835
45	0x3d9bc561	0.076060064
46	0xbed042d8	-0.40675998
47	0xbe719684	-0.23592573
48	0x3e7f6635	0.24941333
49	0xbf0107eb	-0.50402707
50	0xbee10c3e	-0.43954653
51	0x3f2322f4	0.6372521
52	0x3ef6d247	0.48207304
53	0x3eaed4c5	0.34146705
54	0xbe6c406a	-0.23071447
55	0xbf1663a7	-0.5874581
56	0xbeae56c4	-0.34050572
57	0xbe93f3bd	-0.28896895
58	0xbd19f594	-0.037587717
59	0x3f0a3e7d	0.540016
60	0x3f12a437	0.5728182
61	0x3f052ea0	0.5202427
62	0xbe481744	-0.19540125
63	0x3e0e76ef	0.13912557
64	0xbea16ba3	-0.31527433
65	0xbe3846f0	-0.1799581
66	0x3e9c05eb	0.30473265
67	0xbde1d302	-0.11026575
68	0x3e022b44	0.12711817
69	0x3e5dfd54	0.21678668
70	0xbd23f508	-0.040028602
71	0x3e22408d	0.15844937
72	0x3ee0ece2	0.43930727
73	0xbe55edd3	-0.20891504
74	0xbf2dbe9e	-0.67868984
75	0x3e76867e	0.24074742
76	0x3ea2436e	0.3169207
77	0x3cec70ba	0.028862346
78	0xbc222ab6	-0.009897878
79	0x3e83e433	0.2576004
80	0x3e5d4b35	0.2161072
81	0xbe5be268	-0.21473086
82	0x3e0fd1e1	0.14044906
83	0xbe5d9abb	-0.21641056
84	0x3e254df2	0.16143015
85	0x3d280c7e	0.04102754
86	0xbf109348	-0.56474733
87	0x3ed6f764	0.4198562
88	0x3edc482a	0.43023807
89	0xbec1503c	-0.37756526
90	0xbd8441f4	-0.06457892
91	0x3e0913fa	0.13386527
92	0xbd73239d	-0.059360135
93	0xbd6969c0	-0.056985617
94	0xbe602ff9	-0.218933
95	0x3e660739	0.22463693
96	0xbea15959	-0.3151348
97	0x3e85bc4b	0.2612022
98	0xbd4a7871	-0.049431268
99	0xbc94a639	-0.018145667
100	0xbee0d19d	-0.43909922
101	0xbe30ec0b	-0.17277543
102	0xbef373cb	-0.4754928
103	0xbd8540c1	-0.065064915
104	0xbe8e7be6	-0.27828902
105	0xbe63821d	-0.22217603
106	0xbd6cfd8c	-0.05785899
107	0xbb7b6842	-0.0038361703
108	0xbdd926b8	-0.10603088
109	0xbe411cf4	-0.18858701
110	0xbe014c53	-0.12626772
111	0xbe82a1b5	-0.25513998
112	0xbeac8445	-0.33694664
113	0xbe8df7fb	-0.27728257
114	0x3e7f2e84	0.24920088
115	0x3ddd5594	0.10807338
116	0xbe7c73d7	-0.24653564
117	0x3e870215	0.26368776
118	0xbdc65e1d	-0.096859194
119	0xbee160b5	-0.44019094
120	0xbe350d12	-0.17680767
121	0xbdd6babb	-0.10484835
122	0xbe80fe3b	-0.25193962
123	0x3ee47c7d	0.44626227
124	0x3da310ca	0.07962187
125	0x3ed77947	0.42084715
126	0xbe3aaf9b	-0.1823105
127	0xbe2c7f21	-0.16845371
128	0x3d9adbca	0.07561453
129	0x3ee8afad	0.4544653
130	0x3ec77a16	0.38960332
131	0x3eaa417a	0.3325308
132	0xbe6c97ab	-0.23104732
133	0xbe8ad967	-0.2711899
134	0xbec90921	-0.39264777
135	0xbed5c3ac	-0.41750848
136	0xbee228b9	-0.44171694
137	0xbe9e5315	-0.30922762
138	0x3c248c60	0.010043234
139	0x3e6cd994	0.23129874
140	0x3e67ff4d	0.22655983
141	0xbd957e5c	-0.07299492
142	0x3ea22c5a	0.31674463
143	0x3e05edbf	0.13078974
144	0xbefa862a	-0.48930484
145	0x3e6536d4	0.22384197
146	0x3ebbf1df	0.3670797
147	0xbf18184d	-0.5941208
148	0x3e756271	0.23963334
149	0x3ea6bdd0	0.3256669
150	0xbecb41e8	-0.3969872
151	0x3e3a9add	0.18223138
152	0x3c424cef	0.011859163
153	0xbf0fbaa1	-0.5614415
154	0x3ef033e9	0.46914604
155	0x3ee3d3da	0.44497567
156	0x3ca6458f	0.02029684
157	0x3f5012ca	0.8127867
158	0xbeaba832	-0.3352676
159	0x3f06d941	0.52675253
160	0x3eb66d12	0.3563009
161	0xbf411526	-0.75422895
162	0x3f3db37c	0.74101996
163	0x3ec2345c	0.37930572
164	0x3f11d7de	0.5697001
165	0xbe3441e3	-0.17603259
166	0x3ec10964	0.37702477
167	0xbd94b939	-0.07261891
168	0xbf4047f1	-0.75109774
169	0xbf4cb083	-0.79956836
170	0xbe17acf1	-0.14812066
171	0x3e032ec4	0.12810808
172	0x3cc58b5c	0.024114303
173	0xbc02b4e5	-0.007977699
174	0xbe5dd3e6	-0.21662864
175	0xbe1cba1a	-0.15305367
176	0xbea33d51	-0.31882718
177	0xbe89a45a	-0.26883203
178	0xbe85d53c	-0.26139247
179	0x3e27bed2	0.16381386
180	0x3f11f7ba	0.57018626
181	0x3f0a7d02	0.54096997
182	0xbe81fb9f	-0.25387284
183	0x3ea8ae8b	0.32945666
184	0xbef68523	-0.4814845
185	0xbedea628	-0.43486142
186	0xbdcae77f	-0.099074356
187	0xbea8a65c	-0.32939422
188	0xbe3a3c8a	-0.18187156
189	0x3e67cff9	0.22637929
190	0x3d51a55b	0.051183086
191	0xbeaea3c9	-0.34109333
192	0x3eb72555	0.3577067
193	0xbe77ee2d	-0.2421195
194	0xbe321e6e	-0.1739442
195	0x3e1ec22c	0.15503758
196	0x3d97d70d	0.074140646
197	0xbe5577a3	-0.20846419
198	0x3cc58045	0.024109015
199	0xbd005bc1	-0.031337503
200	0xbe3d76eb	-0.18502395
201	0xbe50ddae	-0.20397064
202	0x3e48e872	0.19619921
203	0xbe584614	-0.21120483
204	0xbe1741df	-0.14771222
205	0x3db469c9	0.088092394
206	0xbcd0daf3	-0.025495028
207	0xbea18dcf	-0.31553504
208	0x3e95faaf	0.2929282
209	0xbbf6a407	-0.007526878
210	0xbecbd967	-0.39814302
211	0x3e70b064	0.23504788
212	0x3e39b59d	0.18135686
213	0xbee7b041	-0.4525166
214	0x3e7430c3	0.23846726
215	0x3cafec70	0.021475047
216	0xbe266a46	-0.16251478
217	0x3e9e836e	0.30959648
218	0x3e2d250a	0.1690866
219	0x3c406004	0.011741642
220	0x3d06d58a	0.03291849
221	0x3ed2a020	0.4113779
222	0xbeea286f	-0.45733973
223	0xbe9b074c	-0.30279005
224	0xbd815a8f	-0.06316101
225	0xbe03cd4a	-0.1287128
226	0x3e3108fd	0.17288585
227	0xbe8a6b2f	-0.270349
228	0x3e793d1e	0.2433972
229	0x3eaf4b68	0.34237218
230	0xbdc801e9	-0.09765989
231	0xbdd33685	-0.10313133
232	0x3d9394ee	0.072061405
233	0x3dd47c79	0.10375304
234	0xbe636ed3	-0.22210245
235	0xbe09520c	-0.13410205
236	0xbe684915	-0.22684129
237	0x3ebf33db	0.3734425
238	0xbe5dfcf4	-0.21678525
239	0xbec1b18b	-0.37830767
240	0xbd896d35	-0.06710283
241	0x3eb467f8	0.35235572
242	0x3f0a8ba7	0.5411934
243	0x3ea7d881	0.32782367
244	0x3c8951b4	0.016762592
245	0xbe794960	-0.24344397
246	0x3c1051b4	0.008808542
247	0x3e42d48b	0.19026391
248	0xbe45a6cb	-0.19301908
249	0xbe9ecf5b	-0.31017575
250	0xbd0f7f77	-0.03503367
251	0xbe60c207	-0.21949016
252	0xbec929df	-0.39289758
253	0xbeca9688	-0.3956797
254	0x3e013834	0.12619096
255	0xbeb6e391	-0.35720494

bias f4 [32]
0	0xbe77ff95	-0.2421859
1	0xbdc36f96	-0.09542768
2	0x3e64aedc	0.22332329
3	0xbe193da2	-0.14964917
4	0xbe67e6ee	-0.22646686
5	0xbe3a5936	-0.18198094
6	0xbd6b0276	-0.057375394
7	0xbdec3d8c	-0.11535177
8	0xbe8cb9f3	-0.27485618
9	0xbc5fa468	-0.013650037
10	0xbe9fcfda	-0.31213266
11	0x3efd64c4	0.4949094
12	0x3e88ea79	0.26741388
13	0xbdc06a0b	-0.09395226
14	0xbb50ff37	-0.00318904
15	0x3d80c3f6	0.062873766
16	0xbc895182	-0.016762499
17	0xbf0d87b8	-0.55285215
18	0xbbedeaec	-0.007260671
19	0xbe05d9be	-0.13071343
20	0x3d924668	0.07142335
21	0xbcc52c00	-0.024068832
22	0xbdb28b41	-0.08717967
23	0x3d85a63a	0.06525846
24	0xbc4de8a2	-0.012567671
25	0xbe0dee89	-0.13860525
26	0xbc202047	-0.0097733205
27	0xbd6853ee	-0.056720667
28	0xbe81deb7	-0.2536523
29	0xbe171a07	-0.14756022
30	0xbe47011b	-0.19434015
31	0x3dc6b547	0.09702545

weight f4 [64, 32, 3, 3]
0	0xbd543996	-0.05181273
1	0x3db8c9d7	0.09022873
2	0x3d5776fa	0.0526037
3	0x3bd769f3	0.0065739094
4	0xbd90394f	-0.07042181
5	0xbdb1fbb7	-0.08690589
6	0xbb7b295b	-0.003832421
7	0x3d7f59a2	0.06234134
8	0x3beee93d	0.0072909878
9	0xbd8b70b9	-0.068086095
10	0x3d6ba59b	0.05753098
11	0x3e1f8726	0.15578899
12	0xbdbc1ce6	-0.091851994
13	0xbcea7a0d	-0.028622651
14	0xbd26efc3	-0.040756
15	0x3cc3df87	0.023910297
16	0x3ce09562	0.027414981
17	0xbd092040	-0.03347802
18	0x3c5c54ee	0.013447983
19	0xbd851589	-0.06498248
20	0xbd855710	-0.065107465
21	0xbcae0dea	-0.02124687
22	0xbd4e6bee	-0.0503959
23	0x3ca3c87f	0.019993065
24	0xbd445806	-0.04793551
25	0x3d07124d	0.032976437
26	0xbc191c2c	-0.009345096
27	0x3d396750	0.045264542
28	0xbbedc648	-0.007256303
29	0x3b7f8e49	0.003899472
30	0x3d4de928	0.050271183
31	0xbd838ef4	-0.064237505
32	0x3caccb12	0.021092925
33	0xbc9413f6	-0.018075924
34	0xbd229bae	-0.03969925
35	0x3d50760d	0.050893832
36	0xbc74328c	-0.014904629
37	0xbd3a74ac	-0.045521423
38	0xbc94b082	-0.018150572
39	0xbd9d2c5d	-0.07674477
40	0x3b98cc0f	0.0046629976
41	0xbd304432	-0.043033786
42	0xbc93ab33	-0.01802597
43	0xbcb73976	-0.022366267
44	0x3c4c21b1	0.0124592045
45	0x3cc5bd13	0.02413801
46	0xbd86f643	-0.065899394
47	0xbda1520f	-0.078769796
48	0x3dadccb2	0.08486308
49	0x3de641ee	0.11243044
50	0x3d019243	0.031633627
51	0x3d7407a6	0.059577607
52	0x3d893565	0.06699637
53	0x3c9a51ed	0.018837893
54	0xbd92e7ee	-0.07173143
55	0xbd1623ba	-0.036655165
56	0x3b8ee91c	0.004361285
57	0x3b857b3f	0.00407353
58	0xbd5e3f9e	-0.05425989
59	0xbd1c3e47	-0.03814533
60	0x3becba09	0.0072243256
61	0x3dac6041	0.084167965
62	0x3bdfe1c8	0.006832335
63	0xbd5de6db	-0.05417524
64	0x3ca3081a	0.019901324
65	0x3d0c7cef	0.034298833
66	0xbcbdcbb6	-0.023168426
67	0x3d73adaa	0.05949179
68	0x3cb28411	0.02179149
69	0x3ceb75a4	0.028742619
70	0x3c2ff60e	0.010739816
71	0x3c33fd2a	0.010985652
72	0xbbea9537	-0.007158901
73	0x3b91c0d0	0.004448034
74	0x3cf9e925	0.03050668
75	0xbd946e50	-0.07247603
76	0x3c520b65	0.0128200995
77	0xbb163fe5	-0.0022926268
78	0x3c3ec0fc	0.011642691
79	0x3cc2b3f3	0.023767447
80	0xbae17fca	-0.0017204222
81	0xbd765890	-0.060143054
82	0xbd03ed28	-0.03220859
83	0xbcae533d	-0.021279925
84	0x3d057f0e	0.032591872
85	0xbcbaa551	-0.022783907
86	0xbd80e658	-0.062939346
87	0x3c9fe816	0.019519847
88	0x3ccc998a	0.024975557
89	0x3d4524de	0.048130862
90	0x3c968523	0.018374031
91	0x3d236ac3	0.039896738
92	0xbd176a94	-0.036966875
93	0xbbf487aa	-0.0074624615
94	0xbd22f7b0	-0.039786994
95	0xbd66aae2	-0.05631531
96	0xbb14555b	-0.0022633884
97	0xbd158642	-0.03650499
98	0x3cbda48a	0.023149747
99	0x3c8f3949	0.01748337
100	0xbdabec7a	-0.08394714
101	0xbda13406	-0.07871251
102	0xbd48cb45	-0.049021978
103	0x3c6c7a8f	0.014433517
104	0xbda26c99	-0.079308696
105	0x3c675b09	0.014120826
106	0xbd4db287	-0.050219085
107	0xbd8659c1	-0.06560088
108	0x3d2dfd8b	0.042478126
109	0xbd347344	-0.04405524
110	0xbdb58b5b	-0.088644706
111	0xbcf8c611	-0.030367883
112	0xbd414953	-0.047189068
113	0xbb3a1c87	-0.0028398351
114	0x3a9f7d09	0.0012168001
115	0x3cdf1c7a	0.027235258
116	0xbd82d6e8	-0.06388646
117	0xbd08297a	-0.03324268
118	0xbd99e1e2	-0.07513787
119	0xbd33634a	-0.04379586
120	0x3a86f958	0.0010297699
121	0xbc64cadd	-0.013964382
122	0xbc58a89c	-0.013223793
123	0xbc062d35	-0.008189489
124	0x3cb3019a	0.02185135
125	0x3cfe269d	0.031024272
126	0x3ce60725	0.028079579
127	0x3979b563	0.00023814062
128	0x3d0301a8	0.031984
129	0xbd6e232e	-0.05813902
130	0xbd7a8b80	-0.061168194
131	0x3cfca843	0.030841952
132	0x3d267cc4	0.04064633
133	0x395e7d83	0.00021218327
134	0xbda51873	-0.08061304
135	0xbd96aa66	-0.0735672
136	0xbd5d07b8	-0.05396244
137	0x3c0e044e	0.0086680185
138	0x3b73f697	0.0037225836
139	0xbd868b50	-0.065695405
140	0xbdaef442	-0.08542682
141	0xbce7274c	-0.02821698
142	0xbb816352	-0.0039486075
143	0x3d724a9e	0.05915319
144	0xbc06fd81	-0.008239151
145	0x3db8ada5	0.09017495
146	0x3d3a6b83	0.045512687
147	0xbd03e1b7	-0.03219768
148	0xbd7820e6	-0.06057825
149	0xbc95162c	-0.018199049
150	0xbcf6a0fa	-0.030106056
151	0xbd744243	-0.059633505
152	0xbc719148	-0.01474411
153	0xbd5f5150	-0.054520905
154	0xbd1bff32	-0.03808517
155	0x3d003284	0.031298175
156	0xbd31cd5c	-0.043408737
157	0xbdf97096	-0.12179677
158	0xbdd3a605	-0.103344
159	0xbd1a1f03	-0.03762723
160	0xbd2cf55c	-0.04222618
161	0x3ca22bd1	0.019796284
162	0x3b906cc4	0.004407497
163	0x3d1803ee	0.037113123
164	0x3dc55719	0.09635753
165	0xbd83e9c6	-0.06441073
166	0x3d939203	0.07205584
167	0x3d942ab6	0.07234709
168	0xbd904e56	-0.070461914
169	0xba88042b	-0.0010377219
170	0xbcd4b80d	-0.025966669
171	0x3d1a973d	0.03774189
172	0x3d5a070d	0.05322938
173	0xbcc794ce	-0.024362948
174	0xbd35961e	-0.044332616
175	0xbc9c2881	-0.019062283
176	0xbd57e8f4	-0.052712396
177	0x3d35474c	0.044257447
178	0x3c32a67a	0.010903949
179	0x3cd85a02	0.026410107
180	0xbdc2fa72	-0.09520425
181	0xbd0cf130	-0.0344097
182	0xbd849fd8	-0.064758
183	0xbdbcda1f	-0.09221291
184	0xbd6948e6	-0.056954287
185	0xbca96682	-0.020678762
186	0xbdad1fb3	-0.08453312
187	0xbdc7ec24	-0.09761837
188	0xbdacba8b	-0.08434018
189	0xbd95705e	-0.07296823
190	0x3ce378c7	0.027767552
191	0xbd2b406a	-0.041809477
192	0x3ca990f2	0.020698998
193	0x3bea3b8f	0.007148213
194	0xbd079aaa	-0.033106484
195	0xbd16b541	-0.03679395
196	0x3c92dcf6	0.017927628
197	0xbd8d8b4b	-0.06911334
198	0x3d253bf5	0.040340383
199	0x3c6fc7e1	0.014635057
200	0x3ca94894	0.02066449
201	0x3c44cc5d	0.012011615
202	0x3d5f0ed1	0.05445749
203	0x3cad6fbd	0.021171445
204	0xbcdce42b	-0.026964268
205	0x3d38d02d	0.045120407
206	0xbc5dbd8e	-0.013533963
207	0xbc61481c	-0.013750102
208	0xbc0d25fd	-0.008615014
209	0xbc22d50a	-0.009938488
210	0xbd3d5319	-0.046221826
211	0xbccea582	-0.025225405
212	0xbce1f84a	-0.027584214
213	0xbda00311	-0.07813085
214	0xbcafd763	-0.02146501
215	0xbca83152	-0.02053133
216	0xbd05195a	-0.03249488
217	0x3d3c2d1e	0.045941465
218	0x3d891828	0.066940606
219	0xbc64ea33	-0.013971853
220	0x3c845f00	0.01615858
221	0x3d7c9ded	0.061674047
222	0x3d1d17ef	0.038352903
223	0xbc44a6cb	-0.012002657
224	0xbd847e47	-0.06469398
225	0xbda25bc8	-0.07927662
226	0x3d1b6a12	0.037942953
227	0x3daddaf0	0.08489025
228	0x3d36d1be	0.04463362
229	0xbd14faf6	-0.036372148
230	0xbb5b3478	-0.0033448022
231	0x3d332a37	0.04374143
232	0xbd3260b0	-0.04354924
233	0x3d532970	0.05155319
234	0xbdb27953	-0.08714547
235	0xbd85fb3f	-0.06542062
236	0x3b7eb6f6	0.0038866377
237	0x3da2982c	0.07939181
238	0xbccedf7f	-0.025253056
239	0xbb955158	-0.004556816
240	0x3d9875ec	0.07444367
241	0x3dd4e5e1	0.103954084
242	0x3d3346e8	0.043768793
243	0x39ed769c	0.00045292533
244	0x3afa88dd	0.0019114275
245	0xbcfbd0d6	-0.03073923
246	0xbc510b50	-0.012759045
247	0xbcdbfe97	-0.026854796
248	0x3c77427e	0.015091537
249	0x3caa1d6e	0.020765986
250	0x3d0e6fc9	0.034774575
251	0xbd48494c	-0.048898026
252	0xbccb2e7f	-0.024802445
253	0xbd566bc3	-0.052348863
254	0x3d925299	0.071446605
255	0x3cba3e8d	0.022734905

bias f4 [64]
0	0xbb8d4c50	-0.0043120757
1	0x3ce53bf1	0.027982684
2	0x3d1cbab8	0.038264006
3	0x3c8ce631	0.017199608
4	0x3c484a27	0.012224711
5	0xbb443b0b	-0.002994242
6	0xbd4a8920	-0.04944718
7	0xbe4b13f4	-0.1983183
8	0xbce08936	-0.027409177
9	0xbe2f3a0b	-0.17111985
10	0xbc9991b2	-0.01874623
11	0xbc8e068d	-0.017337108
12	0x3ceebb40	0.029142022
13	0xbd778ba6	-0.060435914
14	0xbdb73a98	-0.08946723
15	0xbd871115	-0.06595055
16	0xbdc802dd	-0.09766171
17	0x3adb49a2	0.0016730318
18	0xbd358909	-0.04432014
19	0xbd43dc60	-0.047817588
20	0xbd8adfae	-0.06780945
21	0xbd21d527	-0.03950992
22	0xbc75eaeb	-0.015009622
23	0xbcb68b2c	-0.02228316
24	0xbd415b41	-0.047206167
25	0xbd19aad7	-0.03751644
26	0xbda4f22a	-0.08054002
27	0xbd7af0b2	-0.0612647
28	0xbddea1e0	-0.10870719
29	0x3b74f80a	0.0037379288
30	0xbcb25630	-0.021769613
31	0xbddd39f9	-0.10802073
32	0xbd9c649b	-0.076363765
33	0xbe6939b0	-0.22775912
34	0xbd388afe	-0.04505443
35	0xbd5df3f4	-0.05418773
36	0xbd719dd9	-0.058988426
37	0x3c395dea	0.011313895
38	0xbc2db36f	-0.010601862
39	0xbc751096	-0.014957568
40	0xbc834772	-0.016025279
41	0xbd714db6	-0.058912
42	0xbe146412	-0.14491299
43	0xbd224442	-0.039615877
44	0xbd0c2953	-0.034219097
45	0xbd16d11e	-0.036820523
46	0x3d823405	0.06357578
47	0xbbd4f16f	-0.0064985077
48	0xbce3003e	-0.027710076
49	0xbe124bbd	-0.14286704
50	0xbc31d959	-0.010855042
51	0xbbc3557f	-0.0059611197
52	0xbd24f9c4	-0.040277258
53	0xbe087b84	-0.13328367
54	0xbd42e0fd	-0.047577847
55	0xbcd00001	-0.025390627
56	0xbcf19b8a	-0.029493112
57	0xbe0cda10	-0.13755059
58	0xbce31d94	-0.027724065
59	0xbd9d8e7b	-0.076931916
60	0xbcf0129e	-0.029305752
61	0xbe47068b	-0.1943609
62	0xbc18b012	-0.009319322
63	0xbc1ac004	-0.009445194

weight f4 [128, 1600]
0	0xbcb0ff07	-0.021605982
1	0xbc37b5b1	-0.011212752
2	0x3d07a294	0.03311403
3	0x3cf522ab	0.029923758
4	0x3cf3ffcb	0.029785058
5	0x3c18c3d0	0.009324029
6	0xbc2dad57	-0.0106004095
7	0xbc4c948f	-0.012486591
8	0x3c14d8c7	0.009084887
9	0x3b3bb087	0.0028639154
10	0xbd11aaba	-0.03556321
11	0xbd1ec35b	-0.038760524
12	0xbbdcaaea	-0.0067342417
13	0xbc5ba3c9	-0.013405749
14	0x3caaff4d	0.02087369
15	0x3bddb609	0.006766085
16	0x3d60932f	0.054827865
17	0x3d3c7afd	0.04601573
18	0x3c8d73cf	0.017267136
19	0x3c7c6e51	0.015407161
20	0x3aea0836	0.001785523
21	0x3c417712	0.011808174
22	0x3cd19996	0.02558593
23	0x39c9335a	0.00038375967
24	0xbb472d4c	-0.003039199
25	0xbc8c77fb	-0.017147055
26	0x3ac9e5a0	0.0015403517
27	0x38815773	6.167488e-05
28	0x3c9392f7	0.018014414
29	0xbcbdfafb	-0.023190966
30	0xbca53c20	-0.020170271
31	0xbbe0283e	-0.0068407347
32	0x3c405f43	0.011741462
33	0x3ccf832c	0.025331102
34	0xbb3349bd	-0.0027357184
35	0xbbcc5f04	-0.0062369127
36	0xbd0022fb	-0.03128336
37	0x3c9144df	0.017733036
38	0x3cfcf8b8	0.030880317
39	0x3c8fe963	0.017567342
40	0xbca6f011	-0.020378144
41	0xba165246	-0.00057343056
42	0x3c0a7521	0.008450777
43	0xbc43cff7	-0.011951438
44	0xbbdf5ca0	-0.0068164617
45	0x3c895be9	0.016767459
46	0xbc615b99	-0.013754749
47	0x3d04a48f	0.032383498
48	0x3c1f3d81	0.0097192535
49	0xbd0b1691	-0.033957068
50	0xbbf0a8d6	-0.0073443456
51	0xb96399c0	-0.00021705683
52	0x3cd00ddc	0.025397234
53	0xbc6d8177	-0.014496199
54	0x3b3ddec4	0.002897189
55	0xbc7e97c0	-0.01553911
56	0xbc337d3b	-0.01095515
57	0x3ca1ca7f	0.019749878
58	0xbad833b7	-0.0016494904
59	0xbbcb2fc9	-0.006200765
60	0xbbdc5cd5	-0.0067249336
61	0xbc707047	-0.0146752065
62	0xbc7350c2	-0.014850797
63	0x3af20053	0.0018463231
64	0xbcb2d664	-0.021830745
65	0xbc6c59dd	-0.014425722
66	0x39ac67b4	0.0003288366
67	0xbcb11d6b	-0.021620473
68	0xbbf5ecd0	-0.007505037
69	0xbcc364c8	-0.023851767
70	0x3cb746ae	0.02237257
71	0xbc54a9aa	-0.012979904
72	0x3bc94fbd	0.0061435387
73	0xbc08b43b	-0.008343752
74	0xbd02ba9d	-0.03191625
75	0xbcb57c71	-0.022154065
76	0xbc00bec5	-0.007857983
77	0xbc3c20ff	-0.011482476
78	0xbd282141	-0.04104734
79	0x3c37c8a6	0.011217272
80	0x3c3d1297	0.011540077
81	0xbadfa220	-0.0017061867
82	0x3b416aef	0.00295132
83	0xbce7c1e8	-0.028290704
84	0x3c94e59e	0.018175896
85	0x3b48908c	0.0030603735
86	0x3d03cd92	0.03217847
87	0x3cdc16eb	0.026866397
88	0x3c4b2c3f	0.012400686
89	0xbc4483e1	-0.011994333
90	0x3b935e58	0.0044973306
91	0xbd54a745	-0.051917333
92	0x3ceb08a1	0.028690638
93	0x3cd48037	0.025940044
94	0x39d85008	0.00041258358
95	0x3ccccbdd	0.024999553
96	0xbc94daca	-0.018170733
97	0x3b98ec96	0.004666875
98	0x3cbf1e50	0.023329884
99	0x3a2e207d	0.00066424144
100	0x3d1538d4	0.03643115
101	0x3c47fd0d	0.012206328
102	0x3cfd502a	0.030922014
103	0x3d982fec	0.07431015
104	0x3d0b9191	0.03407437
105	0xbca36e95	-0.01995019
106	0xbca4b981	-0.020107986
107	0x3d234038	0.039856166
108	0x3d231169	0.039811525
109	0xbccf1de3	-0.025282806
110	0xbd23e7a8	-0.040015846
111	0xbd7c2b00	-0.061564445
112	0xbcdcfddd	-0.02697652
113	0xbcc89a0c	-0.024487518
114	0xbccbd3e6	-0.024881314
115	0xbc5c8ca3	-0.013461265
116	0x3be81255	0.0070822635
117	0x3d23d6a6	0.039999627
118	0xbac2473f	-0.0014822258
119	0xbd1ed4c8	-0.038777143
120	0x3ce2500f	0.027626066
121	0x3db562b0	0.08856714
122	0x3d84944f	0.064736
123	0x3c557931	0.013029383
124	0xbd49522c	-0.04915063
125	0xbc7c6090	-0.015403882
126	0xbc08a53c	-0.008340176
127	0x3cc77579	0.024348008
128	0x3c4af422	0.012387307
129	0xbcc32fb6	-0.023826461
130	0xbce51dc5	-0.027968297
131	0x3bbe9b58	0.0058168583
132	0x3cb50bfc	0.022100441
133	0xbb6402a6	-0.0034791618
134	0xba1a92ec	-0.0005896527
135	0xbd06352a	-0.032765545
136	0xbb8c505c	-0.0042820405
137	0x3cd6c70d	0.026217962
138	0x3cc2d8ea	0.023785073
139	0xbc133c29	-0.008986511
140	0xbcb5ad7e	-0.022177454
141	0x3d680eb8	0.056654662
142	0x394037de	0.00018331359
143	0xbc96de2e	-0.01841649
144	0xbcdc53b0	-0.026895374
145	0x3c5e22d7	0.013558111
146	0x3ccaa147	0.024735106
147	0xbc0e4833	-0.008684206
148	0x3b5ba2ce	0.0033513787
149	0xbccc99fc	-0.02497577
150	0xbc870f43	-0.01648677
151	0xbb88b63d	-0.004172115
152	0xbce9ff69	-0.028564172
153	0x3c1c005e	0.009521572
154	0x3c559263	0.01303539
155	0x3c74f9cf	0.014952137
156	0x3ca9c89c	0.02072554
157	0x3d3a3ae9	0.045466337
158	0x3b78ffa9	0.0037994182
159	0x3b03a68d	0.0020088286
160	0xbc190b69	-0.009341099
161	0x3cf6a4b3	0.030107832
162	0x3c378cd2	0.011203008
163	0xbc015b37	-0.0078952825
164	0xbc5ce991	-0.013483421
165	0xbc2c4ea5	-0.010516797
166	0xbc8d6a34	-0.017262556
167	0xba80508a	-0.0009789628
168	0xbcc7f895	-0.024410525
169	0xbca6c0fc	-0.020355694
170	0x3a9bcbd2	0.0011886305
171	0xbc5610fb	-0.013065572
172	0x3c2f6b95	0.010706802
173	0x3c19d2bf	0.009388625
174	0xbcfcbf7f	-0.030853031
175	0x3b997d48	0.004684124
176	0x3cb8df46	0.022567403
177	0x3cf77eb5	0.030211786
178	0x3db21207	0.08694845
179	0x3b3a22ae	0.0028402018
180	0x3b0b3e59	0.002124688
181	0x3c36eab8	0.01116436
182	0x3cb224a3	0.021745985
183	0x3d301285	0.04298641
184	0x3d0b355d	0.033986438
185	0x3cd53dc6	0.026030432
186	0xbcbe5115	-0.023232022
187	0xbc89e1b7	-0.016831262
188	0xba66c842	-0.00088036445
189	0xbc977dbd	-0.018492574
190	0xbc33b24f	-0.010967805
191	0xbca1fa35	-0.019772628
192	0xbd4b4da2	-0.049634583
193	0xbcf3b4e0	-0.029749334
194	0x3bd54907	0.0065089497
195	0x3a9d1514	0.0011984431
196	0xbd08b7b9	-0.033378337
197	0xbdc04f73	-0.09390154
198	0xbcd7d446	-0.026346337
199	0x3bfd7300	0.0077346563
200	0x3c1dc259	0.009628856
201	0xbcbe4735	-0.023227314
202	0x3c8cbd79	0.017180191
203	0x3cad0cd2	0.021124277
204	0x3c8d86c3	0.017276173
205	0x3c4c78ff	0.01248002
206	0x3c6d5208	0.01448489
207	0xbd0aa2d8	-0.033846706
208	0xbcb76a67	-0.022389604
209	0xbca76c49	-0.020437377
210	0xbc08260e	-0.008309854
211	0xbafea46a	-0.0019427661
212	0x3bb010d1	0.0053730984
213	0xbccfcdbd	-0.025366658
214	0x3c5ce4dc	0.013482299
215	0x3c36fa33	0.011168051
216	0x3d5157d9	0.05110917
217	0x3d1cd3b3	0.03828783
218	0x3ce24321	0.0276199
219	0xbcd79e25	-0.026320526
220	0x3c9f0a98	0.019414231
221	0x3d06b65d	0.03288876
222	0x3c2e2cdc	0.0106308125
223	0x3cae41c7	0.0212716
224	0xbd083005	-0.03324892
225	0xbcc70fd5	-0.024299541
226	0x3cc17042	0.023613099
227	0x3d0bbfc0	0.034118414
228	0x3d865bd2	0.06560482
229	0x3cdbbc5d	0.026823217
230	0xbca2b3b8	-0.019861087
231	0x3a87d73c	0.0010363827
232	0xbcafd0df	-0.021461902
233	0x3d4d106b	0.050064486
234	0x3ca3a39a	0.019975472
235	0xbbdb8232	-0.00669887
236	0xbd164928	-0.03669086
237	0xbdb7f1c4	-0.0898166
238	0xb965644b	-0.00021876504
239	0xbc880b31	-0.016606899
240	0x3c838c3c	0.01605808
241	0xbbf6c6bd	-0.0075310157
242	0xbc417f3b	-0.011810119
243	0xbd4f5487	-0.05061772
244	0xbde4be09	-0.11169059
245	0x3ca39b19	0.019971417
246	0xbd03ee37	-0.0322096
247	0xbd31f674	-0.043447927
248	0xbd55bed2	-0.052183934
249	0xbd5113fb	-0.051044445
250	0xbbba009f	-0.0056763436
251	0xbc3afcb7	-0.011412791
252	0xbcfb26a6	-0.030658077
253	0xbb2638fe	-0.002536356
254	0x3c1c3479	0.009533995
255	0xbb653ed3	-0.0034980073

bias f4 [128]
0	0xbd22845d	-0.039677013
1	0x3d61f233	0.05516262
2	0xbccbaabf	-0.024861692
3	0xbbad3739	-0.005286124
4	0xbd72c598	-0.05927047
5	0xbd09c4aa	-0.03363482
6	0xbd10083c	-0.035164103
7	0xbd2db502	-0.04240895
8	0xbbb04707	-0.005379561
9	0x3cf27941	0.029598834
10	0xbb0175b9	-0.0019754006
11	0x3c00b413	0.007855433
12	0x3d3b9ae2	0.045802005
13	0x3d1b5feb	0.03793327
14	0xbd017295	-0.031603415
15	0xbd2ec899	-0.042671774
16	0xbd2a5d7b	-0.041593056
17	0xbd033404	-0.032032028
18	0xbcc0c595	-0.023531714
19	0xbce2fab3	-0.027707433
20	0xbc70b574	-0.014691699
21	0x3c8d5796	0.017253678
22	0xbbb7ed5d	-0.0056130127
23	0xbd2b0f4c	-0.041762635
24	0xbc037c5e	-0.008025257
25	0xbc16f7c9	-0.00921435
26	0x3d0f05d7	0.03491768
27	0x3c2b070a	0.01043869
28	0xbc81547d	-0.015787357
29	0xbc718944	-0.014742199
30	0x3c95b6f4	0.018275715
31	0x3d519742	0.05116964
32	0xbced895a	-0.028996158
33	0xbcc4cac9	-0.024022477
34	0xbcd4687b	-0.025928726
35	0xbd44ec3b	-0.04807685
36	0x3d264288	0.040590793
37	0x3c5966c8	0.013269134
38	0x3ce02a0a	0.027363796
39	0x3c24803e	0.010040341
40	0x3d379aae	0.04482525
41	0x3a828342	0.0009957331
42	0xbcd1d2e7	-0.025613261
43	0x3d8d3115	0.06894127
44	0x3c21dda2	0.009879502
45	0xbb8dee6f	-0.004331402
46	0xbccfe084	-0.025375612
47	0x3cef63bc	0.029222362
48	0x3d484a62	0.048899062
49	0x3ca6247e	0.020281073
50	0x3be10e2f	0.006868146
51	0x3b959125	0.0045644217
52	0xbd9afdb1	-0.07567919
53	0x3d0661cd	0.032808114
54	0x3bfe777f	0.00776571
55	0x3c924af8	0.017858014
56	0x3d2668a5	0.04062714
57	0xbc5c8e49	-0.013461658
58	0x3ca3b3fa	0.01998328
59	0x3ab0ccd4	0.0013488778
60	0x3d318a2a	0.043344654
61	0xbc5b5209	-0.013386258
62	0x3cbd1b71	0.023084374
63	0x3b0dcd76	0.0021637357
64	0x3c13ec6a	0.0090285335
65	0xbd124668	-0.035711676
66	0xbd143e89	-0.03619245
67	0xbb80fe4e	-0.0039365655
68	0xbc496d09	-0.012294062
69	0x3bbf55cd	0.0058390857
70	0x3d1c2731	0.038123313
71	0xbd783a9c	-0.06060277
72	0xbd78b82a	-0.060722508
73	0x3d5eedca	0.054425992
74	0xbc2d821e	-0.010590104
75	0xbd6861d8	-0.056733936
76	0x3d1f83b6	0.03894397
77	0xbcbd303f	-0.023094295
78	0xbd8290bc	-0.06375262
79	0x3d440fb2	0.04786653
80	0x3d4f0586	0.050542377
81	0xbc06ddbc	-0.0082315765
82	0x3caab7aa	0.020839531
83	0x3ccf12f6	0.025277596
84	0x3c3fad33	0.011699009
85	0x3d1fcaa0	0.039011598
86	0xba61eab1	-0.00086180406
87	0x3cdf98d6	0.027294558
88	0xbb9dca58	-0.004815381
89	0x3cac1def	0.021010367
90	0x3d36d71c	0.044638738
91	0x3ca8e948	0.02061905
92	0xbbf3fc48	-0.0074458458
93	0x3b1d9608	0.0024045724
94	0x3bfb5655	0.0076702037
95	0x3ca4e756	0.02012984
96	0x3d1db465	0.038502116
97	0xbbae6a6d	-0.0053227455
98	0x3ce6ddc0	0.02818191
99	0x3c808272	0.015687201
100	0xbb9ee4ae	-0.004849038
101	0xbc3bd070	-0.01146327
102	0xbcd0a2ad	-0.025468195
103	0x3d105d5b	0.03524528
104	0x3a0fa7cb	0.000548002
105	0x3c82e81e	0.015979823
106	0xbc92bcb2	-0.017912243
107	0x3d31b111	0.043381754
108	0xbce65d56	-0.028120678
109	0x3cae77d4	0.021297373
110	0xbc09a94b	-0.008402179
111	0x3c9de8ce	0.019276049
112	0x3c79af30	0.015239522
113	0xbd52ddf9	-0.05148122
114	0x3cda4f0a	0.026649017
115	0x3a68284b	0.0008856102
116	0xbd878cc2	-0.06618644
117	0x3c9255cd	0.017863179
118	0x3c719d42	0.014746966
119	0xbc74384a	-0.0149059985
120	0xbcdfab03	-0.027303224
121	0x3cc25aa4	0.023724861
122	0xbbecf0fa	-0.007230875
123	0xbd17b6ba	-0.037039496
124	0xbd0d4443	-0.034488928
125	0xbce81e23	-0.028334683
126	0x3c1967f5	0.009363164
127	0xbc4d3718	-0.012525342

weight f4 [10, 128]
0	0x3e105777	0.14095865
1	0xbe10b2de	-0.14130732
2	0x3db00319	0.08594341
3	0xbd3f5953	-0.046716046
4	0xbe81d3d5	-0.25356928
5	0xbe361728	-0.17782271
6	0xbdcc2496	-0.09967916
7	0xbe746f4e	-0.23870584
8	0xbe053d6b	-0.1301171
9	0x3c2a057e	0.010377286
10	0xbe36ecea	-0.17863813
11	0xbe261855	-0.1622022
12	0xbe36582d	-0.17807074
13	0xbe06be67	-0.1315857
14	0x3e8870ee	0.2664866
15	0xbe80ca7b	-0.2515448
16	0xbe55e248	-0.208871
17	0x3ceaa667	0.0286438
18	0xbe03a2b1	-0.1285503
19	0xbd7397c0	-0.059470892
20	0xbcd0fc7d	-0.02551102
21	0x3e1a3ec8	0.15063012
22	0x3e190be5	0.14945944
23	0x3d4e8858	0.050422996
24	0x3e91cd34	0.2847687
25	0xbe662d4e	-0.2247822
26	0xbe26d0ac	-0.1629054
27	0xbe6cf75e	-0.23141238
28	0xbe508df5	-0.20366652
29	0xbd5d91ce	-0.05409413
30	0x3c8b8a03	0.017033583
31	0xbe206ecf	-0.1566727
32	0xbdb961d2	-0.09051861
33	0x3e37de4e	0.17955896
34	0x3cb5e4e1	0.022203865
35	0xbe7e791b	-0.24850886
36	0xbd755adf	-0.059901115
37	0xbde49eff	-0.111631386
38	0xbe18ea58	-0.14933145
39	0xbe7a1052	-0.24420288
40	0xbd6739d5	-0.056451637
41	0x3e3a7001	0.18206789
42	0x3db89baf	0.09014069
43	0x3d56d4e0	0.052449107
44	0xbd27f527	-0.04100528
45	0x3e2a8846	0.16653547
46	0x3e65a94d	0.22427864
47	0xbe25ff25	-0.16210611
48	0xbdc0893e	-0.09401177
49	0x3d94dff2	0.07269277
50	0x3df9842b	0.12183412
51	0xbe11be17	-0.1423267
52	0xbe4203cb	-0.1894676
53	0x3e362618	0.17787969
54	0x3e767e3c	0.24071592
55	0xbdf9ca6e	-0.121968135
56	0xbe53b91c	-0.20676082
57	0xbe843b5d	-0.2582654
58	0x3e2ed0bf	0.17071818
59	0xbe3a7887	-0.1821004
60	0x3e2a2780	0.1661663
61	0xbe3537b9	-0.17697038
62	0xbe02f27a	-0.1278781
63	0xbe34bb70	-0.17649627
64	0xbe14aeb8	-0.14519775
65	0xbdf74dcd	-0.12075386
66	0xbdd3c151	-0.103396066
67	0xbde2ff80	-0.11083889
68	0xbe588eff	-0.21148299
69	0x3ca55e47	0.020186557
70	0xbe3c7582	-0.184042
71	0xbdb8b333	-0.090185545
72	0xbe3e271b	-0.18569605
73	0x3db28b15	0.08717934
74	0x3ba93b7c	0.005164562
75	0xbe143ed1	-0.14477088
76	0x3d8f4e9d	0.06997416
77	0x3c5a01c3	0.013306084
78	0x3e233d09	0.15941252
79	0xbe319e85	-0.17345627
80	0x3dfc2413	0.12311568
81	0xbe78fd0b	-0.24315278
82	0xbe1b6739	-0.15176095
83	0x3cc380a6	0.023865055
84	0x3e7684fa	0.24074164
85	0xbdd1f513	-0.10251822
86	0x3e37a312	0.179333
87	0x3df68c30	0.120384574
88	0x3e3d0e96	0.18462595
89	0xbe00ec53	-0.1259015
90	0x3e6be0f2	0.23035029
91	0xbd3123e6	-0.043247126
92	0xbdf2add7	-0.118495636
93	0xbe3e391b	-0.18576472
94	0x3e830ab5	0.25594106
95	0x3e54aa51	0.20768096
96	0x3c06ecc0	0.008235157
97	0x3ddd24b2	0.10798015
98	0xbe1c0655	-0.1523679
99	0x3e08a83e	0.1334543
100	0xbe39ae3c	-0.18132871
101	0xbe6427be	-0.22280785
102	0xbcb66d30	-0.022268862
103	0x3e875c4b	0.264376
104	0xbb0686e2	-0.0020527174
105	0xbba2b5c7	-0.004965517
106	0xbdd150b4	-0.10220471
107	0xbe07845f	-0.1323409
108	0xbe31d423	-0.1736608
109	0xbe37c12b	-0.17944781
110	0xbe807945	-0.2509252
111	0xbe3b7572	-0.1830652
112	0xbe2888f1	-0.16458489
113	0xbe046e40	-0.12932682
114	0x3e2e683d	0.17031951
115	0xbe664c27	-0.22489987
116	0xbe9c0a1d	-0.30476466
117	0xbe409b6e	-0.18809292
118	0xbd586849	-0.05283383
119	0xbe23b1ca	-0.1598579
120	0x3d43f2a6	0.04783883
121	0x3e1d218f	0.15344833
122	0x3e1fb893	0.15597753
123	0x3d0e10a6	0.034683846
124	0x3d7e3614	0.06206329
125	0xbd5c3612	-0.053762503
126	0xbe1a0163	-0.15039591
127	0x3d84c216	0.064823315
128	0xbe3d85cb	-0.18508069
129	0x3dfc0810	0.12306225
130	0xbd731fd0	-0.05935651
131	0xbdcfba5c	-0.10142967
132	0x3d3f55b5	0.046712596
133	0xbde98ec1	-0.11404181
134	0x3d57da6e	0.052698545
135	0x3d19cf1d	0.037551034
136	0x3e8728dd	0.26398364
137	0x3e72bd77	0.23705088
138	0x3de4db77	0.11174672
139	0x3b1d106b	0.0023966085
140	0x3e65e915	0.22452195
141	0x3dc39c87	0.095513396
142	0xbdb4aa6b	-0.08821567
143	0xbe2d244d	-0.16908379
144	0xbdf99fff	-0.1218872
145	0xbd8090e8	-0.06277639
146	0xbd0531b2	-0.032518096
147	0x3d9b85ad	0.07593856
148	0x3b074995	0.0020643224
149	0xbd3c2c77	-0.045940842
150	0xbdde4727	-0.10853415
151	0xbdc583e9	-0.096443005
152	0xbdc7807f	-0.097413056
153	0x3dcf45ed	0.10120759
154	0x3e97d8bd	0.29657546
155	0x3e2f83be	0.171401
156	0x3d9f75c2	0.077861324
157	0x3dd99fcf	0.10626184
158	0xbd2140a7	-0.039368298
159	0x3ea3908e	0.31946224
160	0x3c819e95	0.015822688
161	0xbe835840	-0.25653267
162	0x3a4ceb82	0.0007817076
163	0xbe3633cc	-0.17793196
164	0xbbd9471d	-0.006630792
165	0x3e64e02d	0.22351141
166	0x3e790cc1	0.24321271
167	0x3dfb20cb	0.12262114
168	0x3e1eef93	0.15521078
169	0xbda83f47	-0.08215194
170	0x3cc069a9	0.023487883
171	0x3e53abf6	0.20671067
172	0x3c60045f	0.013672917
173	0xbe7fbe57	-0.24974953
174	0xbe1871cd	-0.14887162
175	0x3e27d4e7	0.1638981
176	0x3e82f6c4	0.25578892
177	0x3e13bc21	0.14427234
178	0x3de606ed	0.1123179
179	0xbdffe3df	-0.12494635
180	0xbe89ef83	-0.26940545
181	0x3dea8300	0.114507675
182	0x3e10b6a3	0.1413217
183	0x3e1b6674	0.15175802
184	0x3e94c7a4	0.29058564
185	0xbe361785	-0.1778241
186	0xbd8a1a5d	-0.0674331
187	0x3e70c9ea	0.23514524
188	0x3e932bae	0.28744262
189	0x3e43aca0	0.1910882
190	0x3e35e682	0.17763713
191	0x3d1aeda1	0.037824277
192	0x3e048a11	0.12943293
193	0xbe1080cd	-0.14111634
194	0xbdce4abc	-0.10072848
195	0x3e377f95	0.17919762
196	0x3df8fd3c	0.121576756
197	0x3dd25deb	0.1027182
198	0x3e17bc7b	0.14817993
199	0xbd24c517	-0.040227022
200	0xbe80c298	-0.25148463
201	0x3e82853e	0.2549228
202	0x3e64cc7c	0.2234363
203	0xbe85f107	-0.26160452
204	0x3e3a92af	0.18220018
205	0xbe4f2968	-0.20230639
206	0xbe86bf00	-0.26317596
207	0x3e3a5f93	0.18200521
208	0x3eaedc3d	0.34152403
209	0x3e118cbc	0.14213842
210	0x3e17273c	0.1476106
211	0x3d95da42	0.0731702
212	0xbe1a64ac	-0.15077466
213	0x3e4ec818	0.20193517
214	0x3d45339a	0.048144914
215	0xbe2b1d80	-0.16710472
216	0xbdf29917	-0.11845606
217	0x3e8a2b55	0.26986185
218	0x3ddc2216	0.10748689
219	0x3e592e8e	0.21209165
220	0xbe09676b	-0.13418357
221	0x3d0e35ae	0.03471916
222	0xbe1ab7eb	-0.15109222
223	0xbe07a209	-0.13245405
224	0xbe5c84a4	-0.21534973
225	0x3e12febb	0.14354984
226	0x3e9da2eb	0.3078836
227	0x3da8c185	0.08240036
228	0x3c654566	0.013993597
229	0x3d825a47	0.06364875
230	0xbe9c3c99	-0.30514982
231	0xbcedd8e2	-0.029034082
232	0xbe0854f7	-0.13313662
233	0xbd9d5c7b	-0.07683655
234	0xbdd52381	-0.104071625
235	0x3e5e8596	0.21730646
236	0xbd86fdaa	-0.06591351
237	0x3e848f4d	0.2589058
238	0x3e432c74	0.19059926
239	0x3d30527c	0.043047413
240	0x3ea4b77a	0.32171232
241	0xbdf1f199	-0.11813659
242	0x3d4f57fc	0.050621018
243	0x3dca23ac	0.09870085
244	0xbda6730c	-0.08127412
245	0xbde8afd4	-0.113616616
246	0x3e8d2790	0.27569246
247	0xbcd914b0	-0.026499122
248	0xbe1620d1	-0.14660956
249	0x3e589e39	0.21154107
250	0xbe4bce7d	-0.19902988
251	0xbe163f8c	-0.14672679
252	0xbe60b31c	-0.21943325
253	0x3e1cfa71	0.15329911
254	0x3dfadc99	0.12249107
255	0xbd38fe3d	-0.045164336

bias f4 [10]
0	0xbd807bd7	-0.062736206
1	0x3de9e742	0.11421062
2	0x3bb1be8c	0.0054243263
3	0xbba6203c	-0.0050697606
4	0xbd63ca15	-0.055612642
5	0xbd9424b1	-0.07233561
6	0xbe2dafbc	-0.16961569
7	0x3ccaef95	0.024772445
8	0x3daf5d2b	0.08562692
9	0x3d36debf	0.04464602
