Pro2/part2-mnist/mnist_model_fully_connected.pt (torch, 34079 bytes, 4 tensors)

weight f4 [10, 784]
000000 72 dd f1 3c 30 23 d8 bb 85 59 0f bd 3c 59 28 3c
       0.029524539 -0.0065959916 -0.03499748 0.010275181
000010 4d 72 07 3d fe 56 fe 3c e0 16 10 bd d9 ab 03 3d
       0.03306799 0.03104734 -0.035178065 0.03214631
000020 b8 95 31 3c ff b2 06 bd 7f 70 0c 3d 50 a6 01 3b
       0.010838918 -0.032885548 0.034286972 0.0019782968
000030 bf 81 d3 3b b7 16 8c 3c 02 3b 2e 3c f4 e1 ae bc
       0.006454676 0.017100675 0.010634186 -0.021347977
000040 80 86 a7 3c 78 f4 ce 3c 4e d1 96 bc 24 61 8d 3c
       0.020449877 0.025263056 -0.018410351 0.017258234
000050 b0 17 d0 bb 9e bc bd bc ae f5 60 bc c0 00 89 bb
       -0.00635048 -0.023161229 -0.01373045 -0.0041809976
000060 45 f0 a0 bc 2e 75 a4 3c de 4d ac 3c aa a7 8a bc
       -0.01964582 0.020075407 0.021033224 -0.016925652
000070 f0 9e b5 bc 00 a0 d5 36 e0 19 00 3c d0 42 af 3c
       -0.022170514 6.366521e-06 0.007818669 0.021394163
000080 c8 4f 99 bb a5 1e bb bc 56 c1 cb 3b 98 39 32 3d
       -0.0046787 -0.02284176 0.006218116 0.043511957
000090 89 e2 59 3d 1c 51 35 3d 18 71 98 3c 28 96 61 bb
       0.053194556 0.044266805 0.018608615 -0.0034421775
0000a0 5c a6 b9 3c be 48 a6 3b c6 4f 41 3d cc 53 8e bb
       0.022662334 0.0050745895 0.04719522 -0.0043434855
0000b0 5b e9 57 bd aa ac 48 3c 82 bc 2e 3c ae 98 d3 3c
       -0.05271278 0.012248198 0.010665061 0.02582964
0000c0 eb 95 a5 3c 4c aa ef bc b0 4d a6 bc 61 b2 14 3d
       0.020213088 -0.029256009 -0.020300716 0.036302928
0000d0 24 b1 91 3c 50 d0 8d 3c e0 23 6c bc 88 ab 09 bd
       0.017784663 0.017311245 -0.01441285 -0.03361085
0000e0 78 17 6e bc aa 64 b5 bc 05 c4 5f bc 44 f9 02 3d
       -0.014531963 -0.022142727 -0.013657575 0.031976
0000f0 48 3a e0 3c 09 80 cf 3c cb a9 97 bb c7 f4 ac 3d
       0.02737154 0.025329607 -0.004628395 0.08445125
000100 2d eb 8e 3d 31 e3 1c 3d 34 6d cf 3d 3d 23 9d 3c
       0.0697845 0.038302604 0.10128251 0.019181842
000110 77 43 65 3d 26 6c 9c 3d 8d 1d 18 3d 24 aa 69 3d
       0.055972543 0.07637815 0.037137557 0.057047024
000120 8b 4f b8 3c 2e 68 03 3d 3f 94 88 3d dd 9e c5 3d
       0.022498867 0.032081775 0.06668901 0.096494414
000130 e1 6e a2 3d 8d 7a 89 3d 8b 3f 19 3d b6 42 5b 3c
       0.07931305 0.06712828 0.037414115 0.013382604
000140 94 c5 10 bd ca a0 65 bd e8 9b f9 3b b2 c9 1b bc
       -0.035344675 -0.056061544 0.0076174624 -0.009508537
000150 48 1f a5 3b a0 4a 13 3c 85 81 f4 bc ef cf bf 3c
       0.0050391294 0.00898996 -0.029846916 0.02341458
000160 59 82 15 3d 6b 5d f8 bc 87 9f 85 3d 79 3a ed 3d
       0.036501262 -0.030317983 0.06524568 0.115834184
000170 b5 e3 ec 3d 77 e1 24 3d f4 e5 1c 3d c0 ee 56 3c
       0.11566869 0.040254083 0.038305238 0.013118446
000180 72 74 f3 bd ce dc 49 bd 16 24 94 bd 2f 7d 9a b9
       -0.118874446 -0.04928284 -0.07233445 -0.00029466438
000190 61 fe d1 bd 15 2a 7c 3d d6 0d 78 3e a8 4e 2c 3e
       -0.10253597 0.06156357 0.24224028 0.1682688
0001a0 c4 50 58 3d f3 69 05 3e fe d0 30 3e e1 f7 dc 3d
       0.0528114 0.13028698 0.17267224 0.10789467
0001b0 c8 eb 8d bc 6f e8 91 bd 27 da 93 bc 53 77 dd bc
       -0.017324343 -0.07124411 -0.01804836 -0.027034437
0001c0 86 0e 12 bd 99 bc c4 bc 68 6c 9d 3c 1f b1 13 3c
       -0.035658382 -0.024015712 0.019216731 0.009014397
0001d0 90 c2 f1 bb 9d c8 2f 3d 8f 4f 20 bd 43 8c 0c bd
       -0.00737793 0.04291593 -0.039138373 -0.03431345
0001e0 6e 20 28 bd 58 8a fb bd 6a 38 25 be 03 3d 8c bd
       -0.041046552 -0.12282246 -0.16134802 -0.068475746
0001f0 d4 23 d7 bd 43 77 69 bd ad 8f 13 be 8c 08 11 be
       -0.105048805 -0.056998502 -0.14410277 -0.14163417
000200 44 6a e4 bc 15 c0 8c 3d 52 ec 10 3d f0 0d 04 3e
       -0.027882703 0.06872574 0.035381623 0.12895942
000210 8d a1 3f 3e ad 5b 27 3e cd 48 95 3e 63 3c 99 3e
       0.1871397 0.16343565 0.29157105 0.29928884
000220 ad 01 a4 3d 3d 82 1e bd 7d 71 2c 3c 2a 39 25 3d
       0.08008132 -0.038698424 0.010525105 0.04033772
000230 90 d5 22 3c 41 18 f0 bc 20 98 61 3c ff 43 80 bc
       0.009938613 -0.02930844 0.01376918 -0.015657423
000240 de 5c f9 bc be ba 28 bd c6 f1 bc bd 8a 22 88 bd
       -0.03043979 -0.041193716 -0.09225802 -0.06647213
000250 d9 14 60 3c 6c 0e 16 bd 2a 75 93 bd e3 d3 e6 3d
       0.0136768455 -0.036634848 -0.07200082 0.11270883
000260 7a 81 22 3d 8d de 4b bd 87 45 35 bd 9d 23 24 be
       0.03967426 -0.049772788 -0.04425576 -0.1602921
000270 36 f6 64 be 4b 58 e6 3c 8f 96 16 be 4f 43 ea 3c
       -0.22359547 0.028118273 -0.14705871 0.028596548
000280 a8 cd dc 3d 41 b4 c4 bd 2f 8c 88 3d f8 5e 16 3e
       0.10781413 -0.09604693 0.06667363 0.14684665
000290 9f 4f 77 3e 29 62 00 3d 81 52 3f 3d ff 78 46 bc
       0.24151467 0.031343613 0.04670954 -0.012113809
0002a0 60 0b 0f bd ee 7a bb bc 4d 0c ae 3c 10 70 42 bd
       -0.034922957 -0.022885766 0.0212461 -0.047470152
0002b0 fe b5 85 bc 5e 84 4f bd 1b fc 7f bd 88 1b ac 3b
       -0.016322132 -0.050663345 -0.062496286 0.0052523054
0002c0 78 94 8f 3b 08 94 00 3d 6f 31 57 be 6d e3 2e 3b
       0.0043817125 0.031391174 -0.21014951 0.002668585
0002d0 21 ac 9f bc ac ca e3 bd 32 7b 06 3d 68 31 93 3d
       -0.019491257 -0.11122641 0.032832332 0.07187158
0002e0 e4 24 ab bd 0a 02 cb 3a a3 0a 0f be 96 97 ed 3d
       -0.08356646 0.0015488279 -0.13968901 0.11601178
0002f0 7d 6f 79 3d bb 36 0d be b1 68 bb bc 15 77 13 3e
       0.06089734 -0.1379041 -0.02287707 0.14400895
000300 20 1a 32 3e 6e d4 07 3d 79 70 f3 bc 3b 65 5f 3b
       0.17392778 0.033161573 -0.029716717 0.0034087438
000310 5b 98 96 3b 7f e4 d6 bc 0c 70 c1 bc b5 5e b2 bd
       0.004595799 -0.026232002 -0.023612998 -0.0870947
000320 58 35 38 be 24 8e 4e be f0 7d 88 be 45 51 f2 bd
       -0.17989099 -0.2017141 -0.26658583 -0.11831907
000330 d9 33 35 be 38 e1 92 3c c0 49 65 3d db 4c df bd
       -0.1769556 0.017929658 0.055978537 -0.10903331
000340 c2 d1 4f bd 57 0a 53 bd 84 17 ee bb eb c3 a5 3e
       -0.05073715 -0.051523533 -0.007265987 0.32376036
000350 91 a0 cd 3d 52 6c 24 3e 1a 6e c0 3d a7 5a d1 3d
       0.10040391 0.16056946 0.09396 0.10222369
000360 e2 9e 0c 3e 23 6c a5 3d 08 26 f3 bc 14 c7 38 3e
       0.13732484 0.08077266 -0.02968122 0.18044692
000370 3c a5 80 3e 87 8d 51 3d 82 c0 6f bc 5a 9e 38 bc
       0.25126064 0.05116036 -0.0146333 -0.011268223
000380 ac ba 6e bc 41 a4 c5 bc 10 94 b0 bc b1 32 e7 bd
       -0.014570873 -0.024126174 -0.021554977 -0.112889655
000390 a5 56 10 be bf 45 4f bd e1 5f 09 be 12 78 ba bc
       -0.14095552 -0.050603624 -0.13415481 -0.022762332
0003a0 9f d1 35 3d 24 cf 2c 3e d7 7b 0d be d1 28 f1 3c
       0.044389363 0.16875893 -0.13816772 0.029438408
0003b0 7f 03 02 bd a8 8f 10 3e c5 82 3f bc d9 83 eb bc
       -0.031741615 0.141173 -0.011688893 -0.028749393
0003c0 9a 69 60 bc 57 21 33 bd 14 4b a1 3d 59 61 14 be
       -0.013697052 -0.043732967 0.07875648 -0.1449026
0003d0 3f 5f 32 be 89 cb 6e bd 09 6a da bd 65 f7 2c bd
       -0.17419146 -0.058299575 -0.10664756 -0.04222812
0003e0 16 3c 95 3e 19 f3 8d 3d 6d 3d 28 3d 30 3d 86 bc
       0.29147404 0.06931133 0.041074205 -0.016386598
0003f0 67 b0 2a bc 50 91 f6 bc 4d 92 20 bd 6f 5a 0d be
       -0.010418034 -0.030098587 -0.039202023 -0.13804029

bias f4 [10]
000000 d7 7d ca 3e 64 57 53 3f 92 74 8d be bb a5 40 bf
       0.39549133 0.8255522 -0.27628 -0.75252885
000010 7a d5 95 be 3d ac 53 3f 33 a5 07 3f f3 e3 24 3e
       -0.29264432 0.8268469 0.5298645 0.1610258
000020 3b cf 8f 3f bf 3f 72 bd
       1.1235117 -0.059142824

weight f4 [10, 10]
000000 8b bf eb be 25 38 8a bd e4 59 1d 3f 6e 26 9f bf
       -0.46044573 -0.0674899 0.6146529 -1.2433603
000010 f2 35 22 bf b3 c6 2a bc 65 7a b2 bd a4 26 43 3d
       -0.63363564 -0.01042335 -0.08714751 0.047644272
000020 5e 83 30 bd 5e 0c ba 3f cf 0f aa 3e cc c5 88 bf
       -0.04309403 1.4535024 0.33215186 -1.0685363
000030 c0 db f3 bf 1c b5 bd 3e 6d 72 95 3f 38 fd bb 3e
       -1.9051437 0.37052238 1.1675545 0.36716628
000040 41 f7 62 bf e7 f9 35 3e 75 37 64 3f 53 dc 53 bf
       -0.8865853 0.17771111 0.8914712 -0.82758063
000050 cc cc b6 bf c6 26 75 be 82 b5 3f 3f 5e c1 71 be
       -1.4281249 -0.23940572 0.74886334 -0.2360892
000060 cd 78 1a 3f 19 01 ae be c9 ab 5c 3f 3a 6b 0b 3f
       0.6034058 -0.33985212 0.86199623 0.5446049
000070 cb fb 3f 3f bf 22 2a 3e d2 ba 21 bf 9d e3 01 3f
       0.7499358 0.16614817 -0.6317569 0.50737935
000080 98 b6 cb bd ea 2b 8f 3f f8 4e 2f 3f 01 2d 41 bf
       -0.09946936 1.1185277 0.6847987 -0.75459296
000090 34 07 9c 3e 1b 63 08 3c 74 9f 96 3e 79 e5 75 3e
       0.30474246 0.00832441 0.29418528 0.24013318
0000a0 2a e0 fd 3e d3 d0 b7 3d 85 1a 28 3f 50 a2 32 3f
       0.49585086 0.08975377 0.65665466 0.6977892
0000b0 ff 4d 31 bf c9 6e 93 3e ca df 70 3f 84 79 04 c0
       -0.6925964 0.2879546 0.94091475 -2.0699167
0000c0 ea ec e0 be 29 e4 6e bf 4d b2 e8 bd d2 9b dd be
       -0.4393075 -0.93316895 -0.11362133 -0.43282944
0000d0 16 69 1d be 28 1c 7e 3f 35 ee 74 bf 33 c9 84 3f
       -0.15372118 0.99261713 -0.95675975 1.0373901
0000e0 9c df d8 3e 1b 5b b4 3f 2e 6c f0 bd d5 3e d8 3e
       0.423581 1.4090303 -0.11739384 0.42235437
0000f0 3d 7f 2c 3f 64 cd 35 bf fe 50 b1 3e 45 10 a0 bf
       0.6738165 -0.71016526 0.34632105 -1.2504965
000100 22 03 6d bf e6 99 91 bf 6d f7 3e bf a2 ec 38 3f
       -0.92582905 -1.1375091 -0.7459629 0.72236073
000110 fd ec 89 3f be c6 a8 3e e0 5a bc 3e 17 e9 ba 3f
       1.0775448 0.32964128 0.36788082 1.4602383
000120 a3 77 dd be 97 40 95 bf 19 87 b6 3d 4c 63 5b 3f
       -0.43255338 -1.1660336 0.089124866 0.8569839
000130 9c 3b 15 bf 27 fb d3 3e a4 78 e4 bd 31 da 89 bf
       -0.5829408 0.41402552 -0.11155823 -1.0769712
000140 32 3b 4d 3f e4 c7 44 bf 66 9c d6 3e a3 0a ff 3e
       0.8016845 -0.7686751 0.41916198 0.49812803
000150 93 10 ec 3e a9 05 ab 3c 85 df 7b bf 16 01 57 be
       0.46106395 0.020876722 -0.9838794 -0.20996508
000160 5f b2 3d bf ac d8 eb 3e a4 14 09 3f 37 a9 29 3f
       -0.741003 0.46063745 0.5354712 0.66273826
000170 d7 89 74 bd 3a d6 e9 3e 00 2a 97 3e 1d d2 c9 be
       -0.059701767 0.45671254 0.2952423 -0.39418116
000180 90 67 44 3f b4 1b 72 bf db c7 f8 bf 00 6a 0b be
       0.76720524 -0.9457352 -1.9435991 -0.13614655

bias f4 [10]
000000 d7 2d 1c be c5 66 d0 3e 6e 44 c1 be f2 6c b4 be
       -0.15251862 0.40703407 -0.3774752 -0.3523937
000010 db a6 38 3e e0 74 22 3f ad f7 b0 3d 4a 06 48 be
       0.180324 0.6345959 0.086409904 -0.19533649
000020 ce ce 0a bf 14 52 85 3e
       -0.5422181 0.26039183
