Pro2/part2-twodigit/mnist_model_fully_connected.pt (torch, 822095 bytes, 8 tensors)

weight f4 [32, 1, 3, 3]
000000 2a aa 66 3e 0a bd b6 bd 6c df 8b bf c7 63 3a 3e
       0.2252585 -0.08922775 -1.0927558 0.18202125
000010 c2 04 9e 3f f1 ec a2 3e c6 53 50 bf 2f 0b 6c 3e
       1.2345202 0.31821397 -0.8137783 0.23051141
000020 c6 6a a8 3e 01 70 31 bf 45 a2 ad 3e 40 49 75 3e
       0.32893962 -0.6931153 0.33912864 0.23953724
000030 ef 18 eb be d0 d3 a6 3e 24 80 ce 3e ee cf aa be
       -0.4591746 0.32583475 0.4033214 -0.33361763
000040 4b 15 e5 3e 96 25 b9 3e 75 da b4 be 33 88 7e be
       0.44742808 0.36161488 -0.3532292 -0.24856643
000050 79 d6 38 be 82 5e e1 be 23 c3 9c be c6 30 17 3e
       -0.18050565 -0.44017416 -0.30617628 0.147647
000060 bc c7 6d be f2 1e ec 3e a6 42 16 3f 06 8c 7e be
       -0.23220724 0.4611736 0.5869545 -0.24858102
000070 a1 8e ac be 63 a2 83 bd 24 cd a8 3d 2d b8 70 3e
       -0.33702567 -0.06427457 0.082422525 0.23507757
000080 21 0c 12 3c d8 4c 47 be 20 46 2a 3e 11 51 bb 3e
       0.008914025 -0.19462907 0.16628313 0.36585286
000090 99 2d 72 3e ec b6 e9 3e 90 0e 33 be 4b 13 81 3e
       0.23650207 0.4564737 -0.17486024 0.25210032
0000a0 b7 ba 16 3d 64 61 2e bf 33 56 0d 3f 52 26 9f bd
       0.03679916 -0.68117356 0.55209655 -0.07770981
0000b0 fd 0a 9c bb 74 04 3f 3e aa 64 2b bf 8d ec 93 be
       -0.004762052 0.18654042 -0.66950476 -0.2889141
0000c0 9f 22 e4 3e 66 3a 1e bf 54 85 55 bf 54 45 79 3f
       0.44557664 -0.6180786 -0.8340657 0.9737141
0000d0 5f 3e 65 3f 9f a8 69 3e cb cd 71 be 6e da 35 bf
       0.89548296 0.2281823 -0.2361366 -0.7103642
0000e0 bb 1e bc be 64 63 04 bf b8 09 a3 3d 45 45 52 3f
       -0.36742195 -0.5171416 0.07960838 0.82136947
0000f0 29 b9 39 3f 0d ee 19 3f 49 d0 80 be 9f a6 64 3e
       0.72548157 0.6012886 -0.2515891 0.22329186
000100 eb 94 ec be 82 26 64 be be 67 b7 3e 4a c9 98 be
       -0.46207365 -0.22280315 0.35821337 -0.2984107
000110 7e 17 f3 3d bf 4f af 3e 53 88 fe bc df 40 65 3e
       0.11869715 0.3424053 -0.031070864 0.22388028
000120 20 ac b6 3e b7 ee 5c be 26 84 75 bf 62 f3 69 3e
       0.35678196 -0.21575437 -0.9590477 0.2284675
000130 0e ff 35 3f 66 01 95 3d 7c e7 e3 bd 9e f9 be 3e
       0.7109231 0.07275657 -0.111281365 0.37299818
000140 c3 67 a4 3e 6f dd 38 be 79 f2 26 3e f6 9d d6 be
       0.32110414 -0.1805322 0.16303433 -0.4191739
000150 23 80 9d 3e 8e 37 12 3e 90 bc 6b bf fd 97 26 3f
       0.30761823 0.14279005 -0.920846 0.65075666
000160 73 87 23 3f 6a a3 ff be a0 34 e9 ba d5 0c 3e 3e
       0.63878554 -0.49929363 -0.0017792173 0.18559583
000170 2f 4a 0c bb 80 eb ff bc 4b d3 5b be d8 5b 8a 3e
       -0.0021406522 -0.031240225 -0.2146732 0.27023196
000180 34 ac 9f be fc 0d 9c 3e 08 49 37 3b bb 38 07 3e
       -0.31186068 0.3047942 0.0027967114 0.13205235
000190 52 e6 c9 be ff c7 29 be 2f 2e 06 bf 6a bc 14 be
       -0.39433533 -0.16580199 -0.5241422 -0.14525
0001a0 86 ff ac be 9e af 06 be 98 69 5e 3d 19 9c 48 3c
       -0.337887 -0.1315293 0.05429992 0.012244248
0001b0 0e a3 94 be 8b 81 47 be 53 e7 cc 3b a0 ba c4 be
       -0.2903065 -0.1948301 0.006253162 -0.38423634
0001c0 f3 6c f6 be cf 24 ce be 94 d9 f8 3e 05 dd 98 3e
       -0.48129997 -0.40262458 0.486035 0.29856125
0001d0 44 26 6a be 24 e8 8d 3e 30 84 87 be 6e 64 25 bf
       -0.2286616 0.27716172 -0.2646804 -0.6460637
0001e0 c4 c3 6c be 5f 2d 99 bd 65 28 8a be 5d aa 05 3f
       -0.23121554 -0.07479357 -0.26983944 0.5221308
0001f0 5f 27 af 3e d4 1b 2a 3f 7c d3 ce be e0 40 aa be
       0.34209725 0.6644871 -0.40395725 -0.3325262
000200 64 c6 8b 3d 59 8c 13 3f 31 01 4e 3f 28 e8 26 3f
       0.068249494 0.5763603 0.8047057 0.6519799
000210 70 87 5e be 89 f1 00 bf ce 27 28 bf da d4 3c bf
       -0.21731353 -0.50368553 -0.6568574 -0.73762286
000220 52 3a 55 bf 79 31 19 bf a8 91 9b bb f7 fc bf 3e
       -0.83292115 -0.59841114 -0.004747588 0.37497684
000230 1c f5 9b 3e f3 a3 34 3e a5 01 10 3f 15 90 ab 3e
       0.3046044 0.17640667 0.5625251 0.33508363
000240 cc 9b 4a bf 3a a9 8b 3e de 56 f3 3e af 75 62 bf
       -0.7914398 0.27277547 0.47527212 -0.8846082
000250 54 8e e5 3e f6 de d4 3e 38 28 e2 be a2 9d dc 3e
       0.4483515 0.41576356 -0.4417131 0.43089014
000260 8d b0 10 3d a4 77 7b bf 35 b2 17 3f 56 ae 31 3f
       0.035324622 -0.9822943 0.592563 0.6940664
000270 c2 61 17 bd e7 50 ad 3f eb 84 c6 be 3e 1d 32 3f
       -0.036958463 1.3540314 -0.38773283 0.6957587
000280 f8 f2 cf 3e 00 4f 8c bf aa 28 7f 3f 1e 8a 34 3f
       0.40615058 -1.0961609 0.99671423 0.7052325
000290 a7 9a 39 3f f5 d1 8f be 29 61 e0 3e 07 43 52 be
       0.72501606 -0.28089872 0.43824127 -0.20533381
0002a0 09 a0 88 bf 24 ab 92 bf 7b a7 8e be 40 0c f2 3d
       -1.0673839 -1.1458478 -0.27862152 0.11818743
0002b0 cc 75 8d 3c df bf 5e bc 13 34 5e be e9 18 1d be
       0.017268084 -0.01359555 -0.21699552 -0.15341534
0002c0 a6 4a a3 be 3a b5 89 be 9d 4b 86 be 63 22 26 3e
       -0.3189289 -0.26896077 -0.26229563 0.16224055
0002d0 b4 bb 28 3f 3b 2c 24 3f 70 4d 98 be c0 2e ed 3e
       0.6591141 0.6412999 -0.2974658 0.4632473
0002e0 b7 8b f6 be 73 95 e2 be bf 19 a2 be 29 cc f6 be
       -0.4815347 -0.44254646 -0.31660268 -0.48202637
0002f0 ed b2 38 be 1d 9e d6 3e 57 4f 86 bc da 4e 0c bf
       -0.18037005 0.41917506 -0.016395254 -0.5480782
000300 61 5c 31 3f 60 93 f5 be d1 06 ad be ad 0f af 3e
       0.69281584 -0.47964 -0.33794263 0.34191647
000310 cc 32 89 bd f4 30 84 be d0 b2 bf 3c a8 0e 21 bd
       -0.06699142 -0.25818598 0.023400694 -0.039320618
000320 f3 ce 3e be da 2c 51 be ab a6 47 3e 67 c2 56 be
       -0.18633632 -0.20427266 0.19497173 -0.20972596
000330 f8 6a 18 be 3c 49 b5 3d ac 9f a2 bc 16 e7 e9 be
       -0.14884555 0.08851859 -0.019851528 -0.45684117
000340 08 f1 ab 3e 8c b8 17 bd ef 4e dd be 9a 67 96 3e
       0.3358233 -0.037041232 -0.43224284 0.29375917
000350 d2 aa 91 3d 2e 90 c6 be bd ef a8 3e 88 3b 9f bd
       0.071126595 -0.38781875 0.32995406 -0.077750266
000360 8b 71 83 bd 58 84 15 3f a2 2d ce 3e 45 a2 47 be
       -0.06418141 0.58405066 0.4026919 -0.19495495
000370 d4 a5 af 3d bd 7b 34 3f 4e 12 41 bf b8 58 2f bf
       0.08576551 0.7050131 -0.75418556 -0.6849475
000380 bb f8 23 be 63 4f 4a be 0b 79 7c 3e c8 64 76 be
       -0.16012852 -0.19756846 0.24655549 -0.24061882
000390 19 fe 81 3e 0c b7 db 3e 61 b6 e2 bd 86 31 5a bd
       0.25389174 0.4291309 -0.11069942 -0.053269885
0003a0 84 45 10 3e e8 b5 b6 3d 02 3b 9f be 8f 6a 77 be
       0.14089018 0.089214146 -0.31099707 -0.24161743
0003b0 36 29 04 be f6 3e ca 3e 03 a4 8c be 50 63 16 bf
       -0.12906346 0.3950116 -0.2746888 -0.5874529
0003c0 42 8d 70 bd 90 1d 03 3f 2a fe 37 3f fa d7 96 3e
       -0.058728464 0.51216984 0.718722 0.29461652
0003d0 45 8c 71 bc 8e ec 75 be 4e 5e 81 3d 9f db 61 3e
       -0.0147429155 -0.2401602 0.06316815 0.22056435
0003e0 e9 3c 39 be 66 ba b0 be 09 ac 90 bd 0b 6a 65 be
       -0.18089642 -0.3451721 -0.07064063 -0.22403733
0003f0 b2 25 14 bf 54 31 1b bf 0e 15 ad 3d d2 56 13 bf
       -0.5787002 -0.60622144 0.084512815 -0.5755435

bias f4 [32]
000000 05 6f b9 bc dc 61 65 bd 95 4c 9a 3e 51 1b 0f be
       -0.022635946 -0.05600153 0.30136552 -0.13975264
000010 d6 33 2f be 67 73 f9 bd 10 fa 93 3b f7 51 0e 3b
       -0.17109618 -0.121802144 0.0045158938 0.0021716335
000020 f1 67 38 be b0 5a 3c 3d 7a de 8a be fe 12 80 3f
       -0.180084 0.045984924 -0.2712286 1.0005796
000030 b4 58 ce 3e 3c d1 63 bd 52 58 fd bb 5f 1e 3d 3e
       0.4030205 -0.055619463 -0.007731476 0.18468617
000040 14 73 0d bc db 1a 04 bf 0d 14 8f 3c f5 ce 0b be
       -0.008633394 -0.5160348 0.017465616 -0.13653167
000050 81 21 aa 3e 63 da 47 bc c6 c3 b2 bd f2 56 aa 3e
       0.33228686 -0.012198064 -0.08728747 0.3326946
000060 0f 87 ad bc 25 cb c8 bd 20 48 80 3c 0f 17 cf bd
       -0.021182565 -0.09804372 0.015659392 -0.1011182
000070 b6 be 19 be fb c1 26 be 65 bd 4a be 0f 55 cb 3d
       -0.15014157 -0.16284935 -0.19798811 0.09928333

weight f4 [64, 32, 3, 3]
000000 85 e5 f1 bc 8e 20 51 3d 3a 19 04 bd e7 ca e7 3c
       -0.029528389 0.051056437 -0.03225062 0.028294994
000010 3d d8 52 bd 00 bf 66 bd f9 86 2a 3b 5c 15 6e 3c
       -0.051475752 -0.056334496 0.0026020391 0.01453146
000020 53 15 8e 3c f6 7f 4f bd a8 6f b4 bc 63 8c dc 3c
       0.017344153 -0.050659142 -0.022025898 0.02692241
000030 5d aa 82 bd bd ad 85 3b 46 ab a5 bc 59 8d 87 3c
       -0.063801505 0.004079549 -0.020223271 0.016546892
000040 25 ce 98 3b 9f 7c 6a bd 68 35 04 3d 6a f4 21 bd
       0.004663246 -0.057247754 0.032277495 -0.039539732
000050 f6 de 91 bc 48 a9 ac bc 91 ab 11 bd 6e b0 4b 3d
       -0.017806511 -0.021076813 -0.03556401 0.049728803
000060 d8 7a b8 bc ba 11 35 3d 0d d5 10 3b 01 16 55 3d
       -0.022519514 0.04420636 0.0022099644 0.052022938
000070 f4 d6 42 bc 07 61 87 bb 11 6b 67 3d 6b 45 59 bd
       -0.011892069 -0.0041314396 0.05649859 -0.053044718
000080 38 f7 fb 3c 52 d9 67 bc f8 37 4d bd d0 d8 2e 3d
       0.030757532 -0.014150934 -0.050102204 0.042687237
000090 00 60 b8 3c 23 70 17 bd b2 2a 2b bd 7a 9a 72 bd
       0.022506714 -0.036972176 -0.041788764 -0.05922935
0000a0 dd 63 56 3c ad 28 36 bd e1 84 45 bc c8 75 21 bc
       0.013085333 -0.044472385 -0.012055607 -0.009854741
0000b0 fc 46 a3 3c 97 a5 3c 3d 32 13 54 bd 4a 9a 46 bd
       0.019931309 0.046056356 -0.05177612 -0.048486985
0000c0 8a 48 be 3c 8b 6d 0c 3d d2 f1 01 3d e6 c5 89 3d
       0.023227949 0.034284156 0.03172476 0.06727199
0000d0 b2 47 17 3d 61 5d 51 bc bb cc f6 bc 03 7f 93 bb
       0.03693361 -0.012778611 -0.03012692 -0.004501225
0000e0 1d c3 24 3d 85 71 a5 bc d9 07 94 bd ec e4 8a bc
       0.040225137 -0.020195732 -0.07228059 -0.016954862
0000f0 d9 05 94 3a 10 ba 55 3d 87 cd 91 bc e4 53 bf bc
       0.0011293247 0.052179396 -0.017798198 -0.023355432
000100 e7 12 aa 3c 66 23 38 3d 2a 11 f2 bc a9 e8 4c 3d
       0.020760966 0.044955634 -0.0295492 0.05002657
000110 93 d0 2b 3d 66 1b b7 3c 72 b1 a1 bb 6f 97 47 bc
       0.04194696 0.022351932 -0.004934483 -0.012182101
000120 4e a0 ec 3c ca 85 6e 3a 2f 54 88 bc 20 34 9e bd
       0.028885033 0.00090989156 -0.016641704 -0.07724786
000130 ee 1d 8f 3c c4 55 a3 3c f3 9d c5 3b 75 4c 2b bc
       0.017470326 0.019938357 0.006030792 -0.0104552405
000140 58 34 09 bc fc b6 02 bd 67 2c 83 bb f5 37 c8 bb
       -0.008374296 -0.03191279 -0.004003096 -0.006110186
000150 9d b5 c5 3b de d4 29 bd 12 c3 36 bd 2e 76 df 3c
       0.006033613 -0.04146277 -0.044619627 0.027278032
000160 60 fc 92 3c 3f cb 4f 3d 37 64 96 3c f9 b3 26 3d
       0.017942607 0.05073094 0.018358333 0.04069898
000170 77 e6 16 bd 83 1f f0 bb 46 ea 21 bd e4 84 65 bd
       -0.036840882 -0.0073279752 -0.03953006 -0.056034938
000180 a7 64 0f bb e1 da 15 bd 85 af bf 3c 5c a4 2f 3d
       -0.0021880062 -0.036585692 0.023399124 0.042881355
000190 e5 9d 18 bd be 86 2b 3c a6 2d e9 bc 60 4a 25 3d
       -0.037259955 0.010469137 -0.02846415 0.040354133
0001a0 2a 15 34 bd 3b df 3a 3d a6 e5 5f bc db 04 4e bd
       -0.043965496 0.045623045 -0.013665592 -0.0502976
0001b0 25 92 27 3d 75 e7 e6 bc 37 69 39 bd a0 59 1f bd
       0.04091086 -0.02818654 -0.045266356 -0.038903832
0001c0 9e 2a 56 bd 61 a0 fb 3b 9f 97 19 3d 93 5b 62 3d
       -0.052286737 0.0076790308 0.037498113 0.055263113
0001d0 d3 8e 42 bd ba f7 0c 3a 90 a1 5d bd 1b f6 de bc
       -0.04749949 0.00053774903 -0.054109156 -0.027216962
0001e0 e6 f7 c0 bc 7a 77 15 bd 7d ea 2c 3b 4d 66 97 bc
       -0.023555707 -0.036490895 0.0026384883 -0.018481398
0001f0 2f f6 06 3c b0 cc 7d 3c 76 c4 5b 3d b4 63 18 bc
       0.008237406 0.015490696 0.053654157 -0.009301115
000200 90 be ff bb 70 f4 0d bd 74 11 22 bd 91 f1 4d 3d
       -0.0078046992 -0.034656942 -0.039567426 0.050279204
000210 00 ea 6b 3d 0a f2 b6 3c 84 47 68 bd 03 80 21 bd
       0.057596207 0.02233221 -0.056708828 -0.039428722
000220 14 ed 07 bd 2c 86 43 3d 28 87 8f bc e9 c2 67 bd
       -0.03318508 0.04773538 -0.017520502 -0.056582365
000230 a6 e8 4c bd ac 7f 35 bc bd 70 89 bc c7 7f 46 3d
       -0.05002656 -0.011077803 -0.01677739 0.0484617
000240 bf cc f2 bc 19 8f 51 3b fd 89 30 bd d9 37 9b bb
       -0.029638646 0.0031976162 -0.043100346 -0.004736882
000250 e6 94 69 bd b6 b5 21 bd d8 ec 80 3a 56 f6 0b bd
       -0.057026766 -0.039479934 0.000983621 -0.03417047
000260 43 58 9d 3c f1 b4 9a 3c c4 d4 42 bd 9a cb 84 bd
       0.019207126 0.018885108 -0.04756619 -0.064841464
000270 46 ce 29 3b 23 d2 7a bd e5 e3 52 bd e2 f0 a1 bc
       0.0025910302 -0.06123556 -0.05148687 -0.019768182
000280 11 a3 2e bd c8 3e 22 3d 13 c9 a2 3c d6 ab 02 3b
       -0.04263598 0.039610654 0.01987127 0.0019938848
000290 6e 56 d5 3a 22 d6 6f bd 64 d7 e1 3c 9d 5e 84 bc
       0.0016276368 -0.058553822 0.027568527 -0.016158396
0002a0 3c 82 5d bd 4a 45 8a 3c 24 cf ce 3c 6c 40 1a 3d
       -0.05407928 0.016878743 0.025245257 0.037659094
0002b0 1a 0d 5a 3d c5 34 cc bc 73 d2 35 bd 81 d3 9e bc
       0.05323515 -0.024927506 -0.044390153 -0.019387962
0002c0 ba 2b 57 bd c0 d8 34 3d e3 d5 32 3c 6b 65 d8 3c
       -0.052531935 0.04415202 0.010915252 0.026415547
0002d0 5d 92 e1 bc fb 08 07 3c 79 ce 65 bd 48 3b 17 bd
       -0.027535612 0.008241887 -0.05610511 -0.03692177
0002e0 1e e0 9c bc 5e 38 e2 bc 6f 80 81 bd 0a 7f 2d bd
       -0.019149836 -0.027614769 -0.06323325 -0.042357482
0002f0 05 aa 51 bd c4 99 2d bd 29 ad 1a 3d 15 47 1d bd
       -0.051187534 -0.04238297 0.037762795 -0.038397867
000300 ec 42 1a 3d 13 f7 9f 3c c5 c0 be bc 97 48 be bc
       0.037661478 0.019526994 -0.023285279 -0.023227973
000310 f5 1d 1b 3d 8c d2 78 bd e7 34 25 3d b2 16 6f 3c
       0.037870366 -0.06074767 0.040333655 0.014592813
000320 78 18 a9 3c 49 e4 45 3c 26 32 5f 3d c8 b4 af 3c
       0.02064155 0.012078353 0.054491185 0.021448508
000330 75 b7 d9 bc bb 5d 39 3d 06 1e 5a bc 59 ae b2 bc
       -0.026576737 0.045255404 -0.013312822 -0.021811651
000340 04 9a 3a bd a4 18 0e bd f7 c0 c2 bc a5 a6 a4 bc
       -0.045557037 -0.034691468 -0.023773653 -0.020098994
000350 26 c4 d3 bc 07 77 66 bd 5d 17 0b bc f5 af 02 3c
       -0.025850367 -0.056265857 -0.008489457 0.007976522
000360 a2 25 72 bd ad 17 a3 bc 12 63 7d bc d3 90 76 bc
       -0.05911792 -0.01990875 -0.015465515 -0.015049177
000370 be 13 98 bb f0 b5 72 3c 1c 3b 32 3d 66 bc b9 3b
       -0.0046410253 0.014813885 0.043513402 0.005668211
000380 0c ea 18 bd 91 14 76 bd b8 d4 03 3d 7e f7 08 3d
       -0.03733258 -0.060078207 0.032185286 0.033439152
000390 e0 91 37 3d 3f 6b a3 bc a0 e8 3f 3c fa c7 71 3d
       0.04481685 -0.0199486 0.011713177 0.059028603
0003a0 e7 3e 4c bd c6 40 7c 3d 76 28 54 bd 7e 09 22 bd
       -0.049864676 0.06158521 -0.0517964 -0.039559834
0003b0 a1 55 d4 3c 47 6b 29 3d 31 cc 4e bd a5 b3 a4 3c
       0.025919737 0.041362073 -0.0504877 0.020105192
0003c0 1e 35 85 3d 29 43 6e 3d 68 c7 b0 bb dc 83 29 3b
       0.06504272 0.058169518 -0.005394865 0.0025865948
0003d0 07 ff d7 3b e0 2e df bc 42 3a 0d bc 65 11 c6 bc
       0.006591681 -0.027244031 -0.008619847 -0.024178216
0003e0 04 28 79 3c 2e b5 b1 3c 81 83 0b 3d db 3a 50 bd
       0.015207294 0.021692839 0.03406096 -0.05083738
0003f0 0e bc ed 3c 7f fc 5e bd 92 73 31 3d 58 0c fc 3c
       0.029020336 -0.054440018 0.043323107 0.030767605

bias f4 [64]
000000 36 64 0a 3d e7 53 af 3c 79 9a ff 3c cf 8a 58 bd
       0.033786975 0.021402312 0.031201588 -0.052866753
000010 a3 63 35 bd ed c8 c4 bd 5b 93 e3 bd 56 9b f7 bd
       -0.044284474 -0.09608636 -0.1111209 -0.12090175
000020 62 01 ad bc d0 bc 3a be e3 a9 84 3c 50 66 48 bb
       -0.021118823 -0.18236089 0.01619429 -0.003057856
000030 0a f0 30 3d 95 7d 8f bb 65 19 53 bd bf 6b 54 bd
       0.04319767 -0.004378984 -0.05153789 -0.051860567
000040 83 b3 07 be de e4 11 3d 4a 40 5d bd a0 ae 03 bd
       -0.13252072 0.035618655 -0.05401639 -0.032148957
000050 5a ff ff bd 79 38 ee bc c7 4e be ba 4a 1c 7a bc
       -0.12499876 -0.029079663 -0.0014519327 -0.015265534
000060 d1 20 d1 bd 25 2b 2a bd 02 24 fe bd b9 76 08 bd
       -0.10211337 -0.041545052 -0.12409212 -0.033316348
000070 26 4a 00 be 8f 52 37 3c 3b 04 f7 bb c6 b9 1c be
       -0.12528285 0.011189117 -0.007538346 -0.15305242
000080 f9 42 a7 bd fd 0a 3e be 8d 88 35 3c 13 7f 05 bd
       -0.08167071 -0.18558879 0.0110799195 -0.03259189
000090 47 9e 84 bd 5c fa eb 3c c5 d7 cf 3c 8d 44 9a bc
       -0.064755015 0.028805904 0.025371442 -0.018831516
0000a0 78 50 00 bd 76 4e 07 be 29 90 06 be 2a 2a 54 bd
       -0.03132674 -0.13213524 -0.1314093 -0.051798023
0000b0 2e 23 77 bd cb 66 11 3c 55 9e 55 3d cc e8 af bc
       -0.060336284 0.008874605 0.05215295 -0.02147331
0000c0 f9 9e dc bb f0 6e b8 bd 1d 67 f8 3c 9b 4d ca bd
       -0.006732818 -0.09005535 0.030322606 -0.09878083
0000d0 78 86 db bd cc 72 05 be cd f2 2a bd 24 8e 20 bd
       -0.10719007 -0.13032073 -0.04173546 -0.039198056
0000e0 6c e0 a4 bc 14 48 9f bd f3 2f 28 bb d3 db 00 be
       -0.020126544 -0.0777742 -0.0025663346 -0.12583856
0000f0 a8 53 14 bd 05 c0 a5 bd 21 75 03 bc 9d ed 41 3d
       -0.036212593 -0.080932654 -0.008023531 0.047345746

weight f4 [64, 2880]
000000 9f 96 7d bc 87 2f f6 bb 57 6f 88 3c e8 3f 1f 3b
       -0.015477805 -0.00751299 0.016654653 0.0024299566
000010 51 dd 9f bc ff 59 d9 3b e0 d7 a2 bb 0b a2 2e bc
       -0.019514712 0.006633043 -0.004969582 -0.010658751
000020 27 04 01 bc 34 7e 28 3c 58 69 47 bc dd ce 78 bc
       -0.007874525 0.010283995 -0.012171112 -0.015186039
000030 84 4b 16 3b 88 27 2a 3c 1e 51 72 3c 75 92 de 3b
       0.0022933194 0.010385402 0.014789848 0.0067923614
000040 94 4a ad 3c 0b 2f 21 bb 4c a9 05 3c 61 80 1d 3c
       0.021153726 -0.002459469 0.008158039 0.009613127
000050 ca 34 07 bc 28 9f 5b bb 97 fa fd 3b 15 38 0f bc
       -0.008252332 -0.0033511613 0.00775082 -0.008741398
000060 ed c7 19 3c 81 b2 58 bc 76 87 0e 3b 83 f5 83 ba
       0.009386045 -0.013226152 0.0021748221 -0.0010067675
000070 db 4f 08 3c 8b e9 a2 bc c4 fd 68 bc 9c 2e 63 bb
       0.00831982 -0.019886753 -0.014220659 -0.0034665233
000080 a4 16 13 b9 2a bb 9d 3c b3 03 ec bb 87 70 b2 3b
       -0.00014027447 0.019254286 -0.0072025894 0.005445543
000090 64 ab 05 bd 0d b7 9a 3b 5f 79 c3 3c 8f 23 86 3c
       -0.032634154 0.0047215284 0.023861585 0.016374378
0000a0 32 b6 5a bc 83 e1 34 bb b2 47 0f bb f6 eb 48 bb
       -0.013349103 -0.0027600236 -0.0021862802 -0.0030658222
0000b0 5e fa 15 3c 2a c0 1c 3c 76 b3 0d bc 7c 7e 6f 3c
       0.0091539305 0.0095673 -0.008648744 0.014617559
0000c0 5c 12 59 3c 9e 5e 6e bc d4 af da bb 23 2c 93 ba
       0.013249006 -0.014548926 -0.0066737924 -0.0011228364
0000d0 c6 27 97 3c 44 47 6e bc 62 df be 3b 14 00 2a bc
       0.018451583 -0.014543358 0.005824969 -0.010375995
0000e0 0b e2 29 bc 01 39 68 3c 50 56 68 3b 2a 15 0d bb
       -0.010368834 0.014173747 0.0035451837 -0.0021527507
0000f0 0a f9 b1 bb 34 84 13 bc f7 12 5f bc 97 b8 9c b8
       -0.005431299 -0.009003688 -0.013615361 -7.473042e-05
000100 c9 88 c9 bb d9 8f 2c bc ff 7c 10 3b 16 d1 5e bc
       -0.0061503393 -0.010532343 0.002204716 -0.013599655
000110 67 4b 1f bc 73 13 a3 bc 18 78 46 3c c4 b4 29 bc
       -0.009722567 -0.019906735 0.0121135935 -0.010358039
000120 dd e8 aa 3b 66 7b 12 bc d8 d7 63 bc 36 2b 6d bc
       0.0052157477 -0.008940553 -0.013906442 -0.014475634
000130 ea 35 c9 3b ad 61 a1 3b 1d e2 5b bc c6 2c 35 3c
       0.0061404603 0.004924974 -0.013420609 0.011058038
000140 a5 a7 4a 3c 9a fc 9e bc ad 64 cd 3a e1 f2 8e b9
       0.012369071 -0.01940756 0.0015670263 -0.0002726531
000150 99 a9 b7 3c c8 74 75 3b 2b a2 97 3c c1 60 f4 3c
       0.022419738 0.003745364 0.018509945 0.029831292
000160 f0 fc 5a 3c 93 84 43 bc cd dd 2b 3c 52 a5 53 bc
       0.013365969 -0.011933464 0.010489893 -0.012917833
000170 10 bb f7 3b e6 b5 a2 3c 0a 4b 7d 3a f4 ae bd 3c
       0.0075601414 0.019862127 0.0009662366 0.023154713
000180 77 1e d7 3a 19 6b 1e bd d5 d5 05 3d f9 e3 f9 3b
       0.0016412277 -0.038676355 0.03267463 0.0076260534
000190 86 05 9f 3c 90 71 1c 3c fa 2d 04 bb a6 26 00 3c
       0.019411813 0.00954856 -0.0020169006 0.0078217145
0001a0 ce dd a5 ba f6 c8 8c bc 6f 40 57 bc 19 22 85 3b
       -0.0012654604 -0.01718567 -0.013137921 0.0040629026
0001b0 83 4a 47 3c 2c f5 73 bc 1f f6 31 bc fe 27 e0 bb
       0.012163761 -0.0148899965 -0.0108619025 -0.006840705
0001c0 fe ff 12 bc d3 67 7a 3c 40 7f 7f bb 6f 94 4d bb
       -0.008972166 0.015283543 -0.003898576 -0.003136899
0001d0 40 35 8b bc 87 4c 15 bd d7 76 b3 bb c0 1c 92 bb
       -0.016993165 -0.036449935 -0.0054768133 -0.0044589937
0001e0 a2 0f a6 ba 4b f8 b1 3b f6 a8 16 3c 55 a2 17 3d
       -0.0012669454 0.00543121 0.009195557 0.037020046
0001f0 1b 55 d6 3a 03 0e 03 3c a4 51 8a 3c c2 04 28 3d
       0.0016352268 0.007998946 0.016884632 0.041020162
000200 ff 12 10 3d 6b 7f a1 bc fe b6 21 bc c2 1a d2 3b
       0.035174366 -0.019714078 -0.009870289 0.006411881
000210 ad d0 ab bc a6 16 17 bd cb a3 05 bd 77 86 a4 3a
       -0.020973528 -0.036886834 -0.03262691 0.0012552281
000220 f0 50 bf 3c 90 4d 0f 3c 23 1d 63 3c 8f d1 cb bc
       0.023354024 0.00874652 0.013861927 -0.024880199
000230 93 32 a6 bc a2 10 52 3c ff 12 b2 bc 9f 8c a4 3b
       -0.020287788 0.012821348 -0.021737574 0.005021646
000240 f6 79 9d 3c e7 ca 0a 3d 45 3c 15 3d 4c 2c ae 3c
       0.019223195 0.03388491 0.03643443 0.021261357
000250 ba 95 03 bd 3c 6e a0 3c 10 3b 90 3b 97 6a 04 3c
       -0.032125212 0.019583814 0.004401572 0.008082054
000260 2c a2 40 3c 0b d1 27 3d bb 9e 6c bc cb 70 8f 3c
       0.011757415 0.040970843 -0.014442141 0.017509839
000270 6b 31 9b bb 23 1a 32 3d 79 c8 42 bb f3 d2 f6 bc
       -0.0047361157 0.043481957 -0.0029721542 -0.030129885
000280 ac 5a d2 3b ff 1e de bd 2f 0a 0b be f6 51 46 bd
       0.0064195003 -0.10845756 -0.13578103 -0.048418008
000290 75 96 ce 3c f4 f7 de bb a7 77 e4 3c 6e 1a 86 3d
       0.025218228 -0.0068044607 0.027889086 0.0654801
0002a0 9f c8 a0 bc d2 d3 0d 3d 5f 15 22 bd 57 e0 4a bd
       -0.019626914 0.034625836 -0.039571162 -0.049530353
0002b0 4f e0 87 bd 02 ff f3 bc 73 61 07 bc c9 08 b0 bc
       -0.0663458 -0.029784683 -0.00826298 -0.021488564
0002c0 2c 66 9b bc f7 ee 96 3c 56 f1 41 3c 39 dd 22 3c
       -0.018969618 0.018424494 0.011837324 0.009940439
0002d0 5b ff 35 3c b9 73 11 3d 4a b4 a0 3c 0c 7a d9 3b
       0.011108245 0.035510752 0.019617219 0.0066368636
0002e0 f1 ba 72 bc 3a 38 9a 3c 78 8b ce bc ea ab 86 bc
       -0.014815078 0.018825639 -0.025212988 -0.016439397
0002f0 ac 63 cb bb e1 96 96 3c 5e 69 ab bb cd 28 f1 3c
       -0.00620695 0.018382492 -0.0052310666 0.0294384
000300 7f ab 13 bd 5d b6 2b 3d e2 b3 1c bc 4e e0 b2 3a
       -0.036052223 0.041921962 -0.009564372 0.001364717
000310 83 88 dc 3c 15 f8 03 bc c1 3a d4 3c c0 11 02 3d
       0.026920563 -0.008054753 0.025906922 0.03175521
000320 b3 25 42 bb f4 01 7c 3b 6a 6b 31 3c 86 ac ab 3c
       -0.0029624521 0.0038453313 0.010828832 0.020956289
000330 58 5a 89 3d 2d 6c f3 3b b9 cf 00 3d c5 2b 9e 3c
       0.06706685 0.007428667 0.0314481 0.01930798
000340 d3 f5 5d bd cf a8 c3 3c b2 c0 2c 3c 7e 5a 5b bd
       -0.054189514 0.023884205 0.010543989 -0.053553097
000350 f0 a3 7c bd e0 67 ef 3b 1e f4 3c 3d da 3f 51 bc
       -0.06167978 0.007306084 0.046131246 -0.012771571
000360 86 23 78 bd f6 4c 17 3d d6 1e b7 3d c6 36 b7 3c
       -0.060580753 0.03693863 0.08941428 0.022364985
000370 f1 a4 d3 bb d9 7f 00 3d c4 e2 59 3c d3 76 a8 3d
       -0.0064588715 0.031371925 0.013298694 0.08225789
000380 b9 3c 60 3b 84 4d 69 bc 3f 68 3b 3d 8a 81 40 bd
       0.003421588 -0.014239673 0.045753714 -0.046998538
000390 40 c8 a3 3c b9 11 ec 3c 14 34 ef bc 44 6d 03 3d
       0.019992948 0.028817045 -0.029199637 0.032086626
0003a0 38 d2 43 bd 44 b8 53 3d 05 78 5b bb 95 06 cb 3b
       -0.047807902 0.0516894 -0.0033488285 0.006195853
0003b0 0f a5 ec 3c 24 7f 0a bc cd af 0b bd 4a f2 62 bd
       0.0288873 -0.008453164 -0.034103204 -0.055406846
0003c0 e0 3b 64 bc 15 27 39 3c a6 a5 02 3d 0a 72 6d bc
       -0.013930291 0.011300822 0.031896256 -0.014492521
0003d0 1e d8 60 3b f0 bd 8a bb 4f ad 21 3d f6 cc 05 bc
       0.0034308503 -0.004234068 0.03947192 -0.008166542
0003e0 f2 0f 86 b9 b3 8f b1 bc 69 b2 df 3b a9 a6 77 bd
       -0.00025570352 -0.021674966 0.006826688 -0.060461674
0003f0 e4 4e c5 bd b1 a8 28 bd 8d 06 ac bd 2b a9 dc 3c
       -0.09634188 -0.0411765 -0.08399687 0.026936134

bias f4 [64]
000000 47 c2 25 3c e1 19 3f 3c 93 3d f2 bc 03 d3 6b 3d
       0.01011712 0.011663885 -0.029570377 0.057574283
000010 16 7f ef bc f6 36 3a bc fb a6 88 3b 39 7f be 3c
       -0.029235404 -0.011365643 0.0041702962 0.023254024
000020 58 a6 f6 ba 99 f6 eb 3c 17 b2 81 bc 58 ef 0f 3c
       -0.0018817885 0.02880411 -0.01583199 0.008785091
000030 7b 06 15 3a 2d 6c a9 3c a1 08 63 3d 20 23 c6 3a
       0.00056848646 0.020681465 0.05542815 0.0015116669
000040 7e e9 08 bc a4 26 83 3b 65 f8 b2 3c c7 0a b2 3c
       -0.00835645 0.004002409 0.02184696 0.021733655
000050 26 4d 06 3d d1 ba 7e bc 2b 8c 28 bd 56 3f b2 3b
       0.03278842 -0.01554747 -0.0411493 0.005439679
000060 f8 30 79 bc a6 ff 40 3c b4 72 db 3b df 2c b8 bc
       -0.015209429 0.011779701 0.0066970233 -0.022482334
000070 62 d7 25 3d e4 7a 7e bc 4b 11 48 bb 76 be 13 bd
       0.04048861 -0.015532229 -0.0030527886 -0.03607031
000080 cf 16 29 3b b7 3b 66 3b 48 4f 94 bc ad dc cd bc
       0.0025800948 0.0035130808 -0.01810421 -0.02512964
000090 d5 44 2c bd 3e b6 cc bb 7b 22 90 bc b6 aa 2c 3d
       -0.04205783 -0.006247311 -0.017594567 0.04215499
0000a0 02 01 ee bc 9f d3 61 bd cb f6 94 3c c5 eb 6d 3c
       -0.029053215 -0.05513346 0.018184086 0.014521544
0000b0 29 19 37 bc a6 74 25 bc 24 08 85 bc de 98 c2 bc
       -0.011175432 -0.010098612 -0.016239233 -0.023754533
0000c0 19 0a b1 b9 ab dc a5 bc e3 10 0f bd 7d 9d 7f bc
       -0.00033767594 -0.020246824 -0.034928214 -0.015601513
0000d0 86 54 2a 3d cf 5c 0b 3d db 6b 8e bb 47 a9 c2 bc
       0.041584514 0.034024056 -0.0043463535 -0.023762358
0000e0 98 59 a5 3c 21 20 56 3c a1 92 47 bc cc 62 fe bc
       0.020184323 0.013069184 -0.012180955 -0.03105297
0000f0 45 8a 80 3c 6a 7a 4d 3c 53 ba 18 3c a0 0e 14 bc
       0.015690932 0.012541393 0.009321767 -0.00903669

weight f4 [20, 64]
000000 4d 2f b0 3c ee 4e 26 bc d8 14 67 bd 7d aa fa 3e
       0.02150693 -0.010150654 -0.056416363 0.48958197
000010 3f 1d fa ba cb 52 82 3e 01 5a d6 be b1 d0 42 3d
       -0.0019082202 0.2545379 -0.41865543 0.047562305
000020 34 6e 86 3e 72 aa 85 3e 5b 50 80 3e 42 62 1d 3c
       0.26255953 0.26106602 0.25061306 0.009605946
000030 4f 23 31 3e 3a 02 90 be 86 c7 05 3f 3a 50 be 3b
       0.17298625 -0.281267 0.52257574 0.0058079036
000040 55 14 3f bc c6 e8 cb be d0 a5 68 3e 39 1d 51 3d
       -0.011662562 -0.3982603 0.22719502 0.05105326
000050 57 9a b0 be 32 df 0e 3b 1e fd d3 be b7 f3 8f be
       -0.34492752 0.0021800515 -0.4140405 -0.28115627
000060 8b b3 ad 3c 18 1f 8b ba 3f 30 d5 3e 96 83 cf be
       0.021203777 -0.0010614125 0.4163837 -0.4053008
000070 75 05 f1 3b 90 ee b4 3e eb f4 bd be e9 3b ce be
       0.007355387 0.3533826 -0.3710092 -0.40280083
000080 8b aa 73 ba b4 ac a3 3e 7d e4 38 bd 3c aa 9b bb
       -0.0009295127 0.319677 -0.04513978 -0.004750518
000090 e4 78 17 bd 4d 23 de be 18 16 00 3d a8 5e 22 3e
       -0.036980525 -0.43386307 0.03127107 0.15856421
0000a0 95 c4 71 be 31 4a 01 3d 8d 42 63 3b 5c 6d ee be
       -0.23610146 0.031564895 0.0034677119 -0.4656781
0000b0 13 4d 88 bb 4b 14 cb be 61 ed 39 3c 4c 6d 96 3e
       -0.0041595786 -0.3966392 0.011348099 0.29380262
0000c0 88 2f 50 3c d0 26 8d 3d 50 35 12 3d df 46 07 bd
       0.012706645 0.068921685 0.035695374 -0.033026572
0000d0 ba ac 03 bd e1 f5 c7 3e f5 3f 14 bd 79 b9 cf 3e
       -0.032147147 0.39054778 -0.036193807 0.40571192
0000e0 58 33 d2 bc dd 38 0b 3b eb bb 53 3e 82 c3 91 3e
       -0.025659248 0.002124361 0.20677154 0.28469473
0000f0 91 f6 2d be 3e d4 da 3e 9a 3e fd 3c eb a6 d9 bc
       -0.16988589 0.42740053 0.03091364 -0.02656885
000100 21 40 e3 3b 94 80 15 3c ee 40 ab bb 21 f8 f0 3e
       0.006935135 0.009124894 -0.005226246 0.47064307
000110 bc 38 29 3d e4 56 bb be 52 06 80 3e 9d 6e 2e bc
       0.04131387 -0.3658973 0.25004822 -0.010646489
000120 96 fc b7 be 7d 5d dc 3e 79 98 6e 3e 89 38 1d 3d
       -0.35934895 0.43040076 0.23300351 0.038383994
000130 0b 90 28 3e 01 26 ea 3e 4f 5c e6 3e bb 76 09 bd
       0.16461198 0.4573212 0.449923 -0.033560496
000140 ad 59 67 bc 1c 04 cb 3e c5 70 c0 3e 08 8d 0c 3d
       -0.0141205015 0.39651573 0.37586036 0.034314185
000150 c4 8a d7 3e 6b 44 ef bc 47 ad ee be 63 21 b1 3e
       0.42098057 -0.029207429 -0.46616575 0.34595785
000160 4a b8 16 3b fc 7c ab 3b 8c ab b9 be b2 63 b9 be
       0.0022998028 0.005233405 -0.36263692 -0.36208874
000170 54 d2 95 bc 61 56 95 be 89 37 89 3e 0b 54 d5 be
       -0.018288769 -0.29167464 0.26800182 -0.41665682
000180 dd 73 ab 3c c1 7e be be 60 59 7c bc 95 d7 32 bd
       0.020929271 -0.3720608 -0.015402168 -0.043662626
000190 ee f6 0d bd 64 02 ac 3e 57 52 32 3d 38 0e 55 3e
       -0.03465932 0.33595574 0.043535557 0.20806205
0001a0 59 32 01 3e a3 31 a0 bc c3 c7 e7 bc d5 60 a3 3e
       0.12616862 -0.019554919 -0.028293496 0.31909814
0001b0 d0 20 4e bc 03 bc af 3e b1 89 8f bc 26 92 89 be
       -0.012581065 0.3432313 -0.017521711 -0.26869315
0001c0 5e c6 94 3b e6 0b ed bc 5b a1 2e 3d a7 e7 15 3c
       0.004540249 -0.028936338 0.04263435 0.0091494685
0001d0 0d a2 cd bc 0b 9a b3 be ea d9 1d bb f5 7a 91 be
       -0.025101686 -0.35078463 -0.0024086186 -0.2841412
0001e0 52 d7 52 bc 09 16 89 3c 69 a1 88 be f8 c6 b4 be
       -0.012868719 0.01673414 -0.26685646 -0.3530805
0001f0 ee 00 ab 3c c1 5f 87 be 69 4b 6c 3c 27 51 59 bc
       0.020874467 -0.26440242 0.014422276 -0.013263977
000200 ff 86 95 3c 7b 65 0a 3b 9e 10 85 bd b4 ae 01 3f
       0.018252848 0.0021117616 -0.0649731 0.506572
000210 d6 1b 55 3d 37 46 c1 be 77 9b d1 be 4e e3 37 3d
       0.0520285 -0.37748882 -0.40938923 0.04489451
000220 94 75 bb be dd c7 a2 be 0b 98 e2 be 6b c5 9e 3c
       -0.36613142 -0.3179311 -0.44256625 0.019381246
000230 c1 41 38 3e 3a c6 84 be 10 78 ad be f7 13 bd bc
       0.17993833 -0.25932485 -0.33880663 -0.023080809
000240 3b f2 39 3c 72 88 bb be 8c cc c1 3e fb ea 19 3d
       0.011349256 -0.36627537 0.3785137 0.03757761
000250 55 2b 9b be 3c 3d da 3a af ad a9 3e c6 48 96 be
       -0.30306497 0.0016650329 0.33140323 -0.29352397
000260 11 13 30 bd 71 1c 24 bc 7f 74 d3 be 51 89 90 3e
       -0.042986933 -0.010016547 -0.41299817 0.28229764
000270 7c 37 48 bb 6b 3b 8e 3e 4b 2c d6 be f6 76 b8 be
       -0.003055065 0.27779707 -0.41830668 -0.3602826
000280 10 cb 6f 3d 8d fb e8 bd 6b 74 29 bd 46 78 28 bd
       0.058543265 -0.113761045 -0.04137079 -0.041130327
000290 f7 fd 6b bc f2 64 d7 3e 3b b9 df bc 50 aa 5e 3e
       -0.014403812 0.42069203 -0.027310004 0.21744657
0002a0 6e 2a f3 bd 5d fb b1 bb cf 5a d5 bc fd 31 ac 3e
       -0.11873327 -0.005431576 -0.026044277 0.33631888
0002b0 a5 9a 08 3d 6a 16 ab be 82 30 71 bc 12 8a 3e 3e
       0.033350606 -0.33415538 -0.014721038 0.18607357
0002c0 ec e0 ea 3b da de 9e 3c ea 27 69 bc 33 f2 37 3a
       0.007167926 0.019393373 -0.014230708 0.00070169865
0002d0 25 cb 93 bc 0a 48 8c be c0 df e9 bb 2d 86 7e be
       -0.018041203 -0.2739871 -0.007137269 -0.24855871
0002e0 0c 37 a6 bc 33 5a 63 3d 0c 3d 9b 3e 7f b6 cb be
       -0.02028992 0.055505943 0.30320013 -0.3978767
0002f0 8a d6 db bd e8 25 90 be 5c dd 85 3b d6 7c af 3c
       -0.107342795 -0.2815392 0.004085226 0.021421831
000300 14 38 f0 3b 96 d3 36 bb 73 73 8c 3c 0f 59 ad be
       0.007330904 -0.002789711 0.017144894 -0.3385701
000310 44 8c 35 3d e2 f3 a0 3e 24 53 b7 3e e4 81 8e 3b
       0.04432322 0.31436068 0.3580562 0.0043489803
000320 48 d3 b3 3e 96 3a b8 be 4a 56 a2 3e 0c 44 c7 bb
       0.35122132 -0.35982198 0.31706458 -0.00608111
000330 f1 5d 0b be 63 52 04 3f 38 9b a8 be ee aa de bc
       -0.13610055 0.5168821 -0.32930923 -0.027181115
000340 e5 02 41 3d ab 18 bd be 66 15 9b 3e b5 41 7c bc
       0.0471219 -0.36932883 0.30289763 -0.015396525
000350 0d be 78 be 34 a9 56 3c 6d 46 cb be e0 e0 82 be
       -0.24291249 0.013101865 -0.39702168 -0.2556219
000360 19 42 f6 bc f0 28 12 bc 9c c8 bf be 48 73 b2 3e
       -0.030060815 -0.008920893 -0.3745774 0.34853578
000370 e4 2f 8c bb 5e 82 b5 3e a0 87 c7 be 79 87 ba 3e
       -0.00427817 0.35451025 -0.3897066 0.36431482
000380 f0 c0 e1 3c 08 9f a7 be a8 58 19 bb 9a 11 36 3a
       0.02755782 -0.3273852 -0.002339879 0.0006945372
000390 b8 e7 67 3b ba 2e c1 3e 94 cd 94 bc a5 5a e2 be
       0.0035385918 0.37730962 -0.018164434 -0.4420978
0003a0 c5 54 1a 3e 19 5c c7 3a 2c 97 05 3d 51 6e 8c 3e
       0.150714 0.0015209942 0.03261487 0.27427915
0003b0 ca 2f d3 bb 27 d1 99 be 65 18 98 bc 95 93 b8 3d
       -0.006444906 -0.30042383 -0.01856632 0.09012524
0003c0 ed 21 9d bb fe e5 a0 bc f8 f6 a0 bb 81 f1 0a 3d
       -0.004795304 -0.019640919 -0.0049122535 0.033921722
0003d0 45 a9 77 bd d2 df a4 be 10 03 18 3c d4 df 71 3e
       -0.060464162 -0.3220201 0.009278074 0.2362054
0003e0 2c d8 26 bd d1 72 53 bd 1e 76 b7 3e 74 cb ab be
       -0.0407335 -0.05162317 0.35832304 -0.3355366
0003f0 55 56 08 3e a9 2d ab be 6c 3e 1b bd 24 a6 15 3b
       0.13314183 -0.33433273 -0.037901327 0.0022834623

bias f4 [20]
000000 a8 0c e4 3d a9 c2 32 3e 9a 3b a8 3d 4b b1 20 be
       0.111352265 0.1745707 0.08214493 -0.15692632
000010 9d f9 05 bd 52 f3 99 3d a3 0f 38 be f5 dc a8 3d
       -0.032708753 0.07517113 -0.17974715 0.08245269
000020 2d 4b 6a 3e 8c bc c9 bb 8d 4e 9f bd 3d 1a 21 3e
       0.2288024 -0.0061565097 -0.07778654 0.15732665
000030 cc 74 25 3d cf 46 03 bd ef f5 a3 bd ba 62 16 bc
       0.04039459 -0.03204995 -0.080058925 -0.009178812
000040 ff f2 71 be 11 16 34 bc e7 e4 6a 3e 12 50 92 3d
       -0.23627852 -0.010991589 0.22938882 0.071441785
